scripts/built_models/torch_ou.pth (torch, 693523 bytes, 9 tensors)

fc1.weight f4 [256, 504]
-0.14840926 -0.065460734 -0.05641997 0.028348826 0.040417735 -0.03366489 -0.08414137 -0.07167205
0.015759999 0.067846894 -0.08462617 0.24157588 -0.22082563 0.07310414 0.055181712 -0.036251556
0.05612294 -0.042498536 0.13179749 0.07821779 -0.1092625 0.15482153 -0.08082915 0.09752013
-0.04360663 0.16425334 -0.14074923 0.11189241 -0.0779221 0.046465315 0.009053095 -0.15266521
-0.024305424 0.15795153 0.031981073 -0.08012481 0.076229595 0.022049643 -0.12894015 0.19000404
0.05670863 -0.09747146 -0.1310728 0.30447116 -0.31821993 0.04751574 0.11393223 -0.00031827175
-0.07300703 -0.18308963 -0.031693723 0.17882973 -0.04695132 0.013885987 -0.0056149834 0.09005104
0.119749546 0.08332052 0.24193282 -0.019572776 0.07906681 0.04395153 0.12375047 -0.05407334
-0.104138516 -0.0098465085 0.023409238 -0.06515563 -0.018426945 -0.14370325 0.021861706 0.046309274
-0.09249692 0.014989161 -0.03724726 0.016792806 -0.1446216 0.12067386 -0.14237478 -0.18815541
0.07087468 -0.18677525 -0.10762531 -0.017182497 -0.2519494 0.20213068 -0.1845528 -0.07880598
-0.042526282 -0.06464695 -0.17848943 0.06601235 -0.27726465 -0.15242453 -0.17607729 0.029626394
0.08618591 -0.22758885 0.3012416 0.035653267 -0.25566378 0.24637723 -0.35009137 -0.026743442
-0.3264241 0.09097561 -0.2213954 -0.19120134 -0.011232948 -0.057856712 -0.111674875 -0.1936626
0.06015775 0.14131275 0.03204146 -0.07769329 -0.061681952 0.029372055 0.10028683 -0.015911859
0.17068975 0.02836507 -0.12370382 0.0056793205 -0.0634317 -0.10732569 -0.07704069 -0.017342823
0.046347786 -0.0033161582 -0.17018883 -0.16704528 0.018543007 0.039280795 0.09838242 -0.04081279
0.027776906 0.09254391 -0.03421747 0.06455947 -0.037644334 -0.1535731 0.1400209 -0.2062746
-0.106537014 0.032081887 -0.23384188 0.17826058 -0.058963325 -0.12417195 0.034780294 -0.042380285
-0.12536728 0.052835707 -0.23859324 -0.097448036 -0.1577382 0.069104515 0.05858217 -0.2213066
0.27761868 0.09914592 -0.24060139 0.27827874 -0.099141054 -0.12716344 -0.23549551 0.02649451
-0.2289642 -0.09044423 0.14085592 -0.2096232 -0.21750621 -0.055019286 0.16319057 -0.031657957
0.12603539 -0.01472755 -0.060949076 0.14329506 -0.08692797 -0.09809782 0.033902127 0.037141737
-0.14281659 0.08881962 -0.07232801 -0.088655286 -0.04419337 -0.041373305 0.12979187 -0.07294809
-0.1126724 -0.056391556 0.09881221 0.15236211 -0.024246126 0.0043146177 0.00088899164 -0.082594946
-0.032999933 -0.039043486 -0.17240047 -0.07964418 0.0023085459 -0.06847959 -0.23631905 0.04974397
-0.20768124 0.14061846 -0.09368966 -0.032248296 -0.042510245 -0.15858072 -0.024260378 0.05591254
-0.16092072 -0.18976519 -0.036146183 0.11417002 0.15950544 -0.09203643 0.23295939 0.1418225
-0.21395262 0.24579793 -0.035885815 -0.12734953 -0.29858512 0.048592106 -0.27483782 -0.32719594
0.08165636 -0.20036276 -0.28054833 -0.09783054 0.001339641 0.038123224 -0.016506858 -0.13794354
-0.08737936 -0.104926884 0.087935805 -0.14961551 0.13750969 0.09947547 0.02966596 0.19543108
0.13741824 -0.09923785 -0.07374616 -0.04259775 -0.06889925 0.021748304 -0.11321466 0.0916784
00000000: 99f8 17be 4710 86bd a018 67bd cc3b e83c
00000010: 118d 253d 32e4 09bd 5052 acbd ccc8 92bd
00000020: 1d1b 813c 50f3 8a3d 7c50 adbd ab5f 773e
00000030: 1d20 62be a0b7 953d 3806 623d 837c 14bd
00000040: 2be1 653d f212 2ebd ecf5 063e a630 a03d
00000050: 05c5 dfbd 8989 1e3e c189 a5bd a2b8 c73d
00000060: de9c 32bd 0732 283e 9120 10be d927 e53d
00000070: 9f95 9fbd 6a52 3e3d 6f53 143c 4554 1cbe
00000080: 2b1c c7bc 0cbe 213e 96fe 023d 7a18 a4bd
00000090: 431e 9c3d 74a1 b43c e308 04be 6b90 423e
000000a0: 4f47 683d 1e9f c7bd f337 06be a5e3 9b3e
000000b0: b9ed a2be dd9f 423d 4d55 e93d b6dd a6b9
000000c0: b684 95bd d97b 3bbe 47d1 01bd 241f 373e
000000d0: 0750 40bd 0d82 633c e5fd b7bb ae6c b83d
000000e0: 403f f53d f3a3 aa3d 3dbd 773e 1657 a0bc
000000f0: c8ed a13d 8506 343d e370 fd3d 027c 5dbd
00000100: 9346 d5bd 4053 21bc bbc4 bf3c 5170 85bd
00000110: 1bf4 96bc f226 13be 5217 b33c cbae 3d3d
00000120: 066f bdbd 1995 753c 9590 18bd 1191 893c
00000130: af17 14be db23 f73d b2ca 11be d0ab 40be
00000140: bf26 913d 0342 3fbe a96a dcbd 4fc2 8cbc
00000150: 83ff 80be 58fb 4e3e 69fb 3cbe 0865 a1bd
00000160: 0a30 2ebd 9f65 84bd efc5 36be 7c31 873d
00000170: a2f5 8dbe 2d15 1cbe 9b4d 34be 0db3 f23c
00000180: 3d82 b03d 0d0d 69be 573c 9a3e 2909 123d
00000190: 5de6 82be 504a 7c3e 2d3f b3be 1015 dbbc
000001a0: 0f21 a7be 6c51 ba3d 7ab5 62be 49ca 43be
000001b0: 660a 38bc 29fb 6cbd ccb5 e4bd 7d4f 46be
000001c0: f967 763d 4ab4 103e e83d 033d a91d 9fbd
000001d0: 37a6 7cbd aa9d f03c 2e63 cd3d 9659 82bc
000001e0: 4bc9 2e3e dd5d e83c 6e58 fdbd 9819 ba3b
000001f0: 7be8 81bd 92cd dbbd 82c7 9dbd 8912 8ebc
00000200: 2dd7 3d3d e753 59bb fb45 2ebe eb0d 2bbe
00000210: 81e7 973c e6e4 203d b97c c93d 502b 27bd
00000220: 658c e33c a987 bd3d 9e27 0cbd c137 843d
00000230: f230 1abd 4442 1dbe a461 0f3e a639 53be
00000240: 1430 dabd 4c68 033d 3f74 6fbe f189 363e
00000250: 8783 71bd dd4d febd c875 0e3d f396 2dbd
00000260: 4860 00be 416a 583d c951 74be d692 c7bd
00000270: 1f86 21be ab86 8d3d dcf3 6f3d 339e 62be
00000280: 0924 8e3e 040d cb3d 3660 76be 8d7a 8e3e
00000290: 770a cbbd 2237 02be bc25 71be 040b d93c
000002a0: 9775 6abe d33a b9bd 893c 103e 77a7 56be
000002b0: f3b9 5ebe e75b 61bd 6e1b 273e c6ab 01bd
000002c0: 6c0f 013e d24b 71bc bda5 79bd f1bb 123e
000002d0: 4b07 b2bd 83e7 c8bd f5dc 0a3d ef21 183d
000002e0: 833e 12be 10e7 b53d b520 94bd e790 b5bd
000002f0: 1b04 35bd 0e77 29bd 29e8 043e cf65 95bd
00000300: cac0 e6bd d5fa 66bd 0e5e ca3d d004 1c3e
00000310: d09f c6bc a361 8d3b 380b 693a 8a27 a9bd
00000320: f02a 07bd 10ec 1fbd c089 30be 7d1c a3bd
00000330: f94a 173b 073f 8cbd 9ffd 71be 55c0 4b3d
00000340: 64aa 54be 49fe 0f3e 5de0 bfbd ca16 04bd
00000350: 391f 2ebd fc62 22be b3bd c6bc 8c04 653d
00000360: 67c8 24be ce51 42be 050e 14bd f9d1 e93d
00000370: 6555 233e 997d bcbd e88c 6e3e eb39 113e
00000380: 6516 5bbe 74b2 7b3e 01fd 12bd ea67 02be
00000390: 26e0 98be 8408 473d 8bb7 8cbe 3a86 a7be
000003a0: 733b a73d e52b 4dbe 08a4 8fbe 615b c8bd
000003b0: e596 af3a 1927 1c3d 6439 87bc 1241 0dbe
000003c0: f3f3 b2bd e8e3 d6bd b017 b43d cf34 19be
000003d0: 57cf 0c3e ccb9 cb3d 0706 f33c 161f 483e
000003e0: 5eb7 0c3e 373d cbbd 3a08 97bd fa7a 2ebd
000003f0: 0d1b 8dbd 8029 b23c 16dd e7bd e3c1 bb3d

fc1.bias f4 [256]
-0.41476294 -0.1826256 -0.3261233 -0.33417073 -0.40328196 -0.19814491 -0.46136513 -0.37237623
-0.35700935 -0.3772117 -0.36013654 -0.5349373 -0.3086885 -0.28745362 -0.3557861 -0.40137696
-0.2325611 -0.40496805 -0.31061593 -0.26260835 -0.23102094 -0.2920097 -0.44776765 -0.4657488
-0.22134706 -0.38184005 -0.43646365 -0.49515638 -0.37449336 -0.34487215 -0.3236487 -0.403129
-0.5134897 -0.51831305 -0.6631535 -0.19236197 -0.40206182 -0.3465368 -0.13201533 -0.1904891
-0.34736717 -0.28701442 -0.3688763 -0.3974293 -0.44069234 -0.27450362 -0.19040309 -0.34450024
-0.42611974 -0.37208143 -0.47257373 -0.2834504 -0.19819628 -0.18681969 -0.29915008 -0.57197136
-0.2834101 -0.22144522 -0.2292309 -0.33171776 -0.42401895 -0.4563296 -0.17144726 -0.457712
-0.07654005 -0.33174065 -0.099096656 -0.18628827 -0.12807126 -0.392499 -0.2830271 -0.52090156
-0.31376004 -0.27798486 -0.2420078 -0.29555348 -0.33747217 -0.3981477 -0.41316852 -0.3547303
-0.50006664 -0.511264 -0.47992757 -0.25736606 -0.42123172 -0.5418179 -0.47270674 -0.54007524
-0.3702992 -0.3458919 -0.29021442 -0.41415462 -0.3911493 -0.54765505 -0.20887348 -0.41374305
-0.45349538 -0.368543 -0.4467419 -0.44518372 -0.5377368 -0.2100456 -0.3113476 -0.5057754
-0.51006234 -0.28066206 -0.68798447 -0.19390278 -0.41947088 -0.4620909 -0.25353786 -0.46735632
-0.29001173 -0.27696845 -0.17702332 -0.25453433 -0.441113 -0.45858318 -0.51110095 -0.29988733
-0.37404278 -0.36654043 -0.3505546 -0.46743953 -0.4659857 -0.35364744 0.08398306 -0.39058194
-0.5227693 -0.30713966 -0.35333744 -0.28220344 -0.30371293 -0.28394836 -0.48096594 -0.03980378
-0.23740944 -0.40136406 -0.4205795 -0.5164441 -0.06621172 -0.464524 -0.34579855 -0.24101682
-0.26102474 -0.2921593 -0.4324657 -0.42004216 -0.31900188 -0.37068474 -0.23306648 -0.38647282
-0.39130324 -0.161269 -0.23980339 -0.530399 -0.23894626 -0.5136074 -0.5455009 -0.27473974
-0.24901353 -0.11420873 -0.4031145 -0.4035098 -0.45591438 -0.37262443 -0.56529015 -0.24415049
-0.29648414 -0.2420067 -0.07023481 -0.28771263 -0.07095142 -0.4996215 -0.38469684 -0.27683666
-0.29877156 -0.4791591 -0.48359913 -0.4402211 -0.53456646 -0.1910413 -0.24928263 -0.5532686
-0.29772145 -0.19426656 -0.38372633 -0.28456512 -0.25635743 0.06994261 -0.27177617 -0.42052498
-0.38596973 -0.3604018 -0.33659932 -0.23542687 -0.48335746 -0.36504927 -0.32565004 -0.14952719
-0.25884944 -0.36565658 -0.119949505 -0.3118615 -0.2985724 -0.37450582 0.026531054 -0.2707539
-0.33103502 -0.360437 -0.4417207 -0.44699073 -0.23549958 -0.38258505 -0.44979274 -0.5655328
-0.16660987 -0.45282978 -0.27639553 -0.3483652 -0.324546 -0.46799564 -0.3036197 -0.37017
-0.12071309 -0.25644195 -0.57350487 -0.62916166 -0.55129486 -0.55555004 -0.4843135 -0.5636146
-0.5161001 -0.22897267 -0.3179324 -0.31364712 -0.40131888 -0.40871397 -0.27200326 -0.3582093
-0.45049685 -0.08536731 -0.47629872 -0.6162439 -0.2884449 -0.00042122958 -0.18553463 -0.25720537
-0.41081303 -0.34160754 -0.21709326 -0.7053004 -0.6140771 -0.3081908 -0.37150815 -0.27215415
00000000: cf5b d4be 3502 3bbe a2f9 a6be 6d18 abbe
00000010: f97a cebe 80e6 4abe 0d38 ecbe 19a8 bebe
00000020: eec9 b6be e421 c1be d163 b8be a7f1 08bf
00000030: 6b0c 9ebe 1f2d 93be 9829 b6be 4881 cdbe
00000040: 7f24 6ebe f957 cfbe 0d09 9fbe 9a74 86be
00000050: c190 6cbe 4c82 95be cd41 e5be a076 eebe
00000060: cea8 62be 8a80 c3be 2a78 dfbe 2385 fdbe
00000070: 98bd bfbe 1593 b0be 48b5 a5be ed66 cebe
00000080: 1074 03bf 2ab0 04bf 6ec4 29bf 89fa 44be
00000090: 0cdb cdbe 456d b1be 072f 07be 930f 43be
000000a0: 1cda b1be 8ef3 92be 5bdd bcbe da7b cbbe
000000b0: 6da2 e1be bd8b 8cbe 07f9 42be 5662 b0be
000000c0: 5e2c dabe 7581 bebe 2ff5 f1be 6920 91be
000000d0: f7f3 4abe a94d 3fbe 332a 99be b76c 12bf
000000e0: 211b 91be 89c2 62be 81bb 6abe e9d6 a9be
000000f0: 0319 d9be 09a4 e9be df8f 2fbe 3a59 eabe
00000100: 08c1 9cbd e9d9 a9be 30f3 cabd 5ac2 3ebe
00000110: 1d25 03be a1f5 c8be eee8 90be ce59 05bf
00000120: 28a5 a0be 0854 8ebe e5d0 77be c952 97be
00000130: 27c9 acbe 04da cbbe d38a d3be 369f b5be
00000140: 5e04 00bf 33e2 02bf 11b9 f5be 7cc5 83be
00000150: afab d7be 94b4 0abf 9e06 f2be 5f42 0abf
00000160: db97 bdbe be18 b1be fc96 94be 130c d4be
00000170: b944 c8be 1f33 0cbf eee2 55be 21d6 d3be
00000180: 8c30 e8be abb1 bcbe 5bbb e4be 1fef e3be
00000190: 1ea9 09bf 3216 57be f468 9fbe 7f7a 01bf
000001a0: 7293 02bf f0b2 8fbe c01f 30bf 738e 46be
000001b0: e3c4 d6be 2e97 ecbe b7cf 81be 5449 efbe
000001c0: 6b7c 94be cfce 8dbe 9a45 35be 5352 82be
000001d0: 90d9 e1be 6acb eabe 83d7 02bf d58a 99be
000001e0: 8982 bfbe 30ab bbbe e47b b3be 3c54 efbe
000001f0: ad95 eebe 4711 b5be 50ff ab3d 5bfa c7be
00000200: 35d4 05bf 6941 9dbe a5e8 b4be f87c 90be
00000210: 4380 9bbe ae61 91be 2b41 f6be 4a09 23bd
00000220: 761b 73be 977f cdbe 3256 d7be ae35 04bf
00000230: 039a 87bd 17d6 edbe 820c b1be 1dcd 76be
00000240: 09a5 85be e795 95be 256c ddbe c40f d7be
00000250: 3754 a3be 64ca bdbe fba8 6ebe c4df c5be
00000260: e658 c8be b323 25be 058f 75be 3bc8 07bf
00000270: 54ae 74be c67b 03bf f2a5 0bbf b0aa 8cbe
00000280: 67fd 7ebe 44e6 e9bd 0665 cebe d698 cebe
00000290: 9c6d e9be a1c8 bebe dbb6 10bf 9602 7abe
000002a0: c5cc 97be 9bd0 77be 45d7 8fbd 124f 93be
000002b0: fa4e 91bd 64ce ffbe fcf6 c4be 89bd 8dbe
000002c0: 96f8 98be 5754 f5be 4e9a f7be a964 e1be
000002d0: 59d9 08bf 55a0 43be f243 7fbe 03a3 0dbf
000002e0: f26e 98be d0ed 46be c777 c4be 85b2 91be
000002f0: 4841 83be 123e 8f3d 3f26 8bbe 0d4f d7be
00000300: d39d c5be 9686 b8be bf56 acbe be13 71be
00000310: a17a f7be bde7 babe 9abb a6be a81d 19be
00000320: ea87 84be 5737 bbbe 16a8 f5bd 4fac 9fbe
00000330: 7bde 98be 3abf bfbe a757 d93c 41a0 8abe
00000340: 6c7d a9be 338b b8be 3729 e2be f8db e4be
00000350: cd26 71be 30e2 c3be 3c4b e6be c2c6 10bf
00000360: c79b 2abe 4ed9 e7be b783 8dbe ec5c b2be
00000370: e52a a6be 209d efbe 0b74 9bbe ec86 bdbe
00000380: 6d38 f7bd 5c4c 83be 37d1 12bf bd10 21bf
00000390: a921 0dbf 8738 0ebf f0f7 f7be 0c49 10bf
000003a0: 231f 04bf d077 6abe 09c8 a2be 5b96 a0be
000003b0: ab79 cdbe f542 d1be 0344 8bbe 3667 b7be
000003c0: 86a7 e6be 0ed5 aebd 6ddd f3be 29c2 1dbf
000003d0: 0daf 93be 7ad8 dcb9 cafc 3dbe 6cb0 83be
000003e0: 1656 d2be 2fe7 aebe b24d 5ebe 918e 34bf
000003f0: 2834 1dbf 2fcb 9dbe 5136 bebe ca57 8bbe

fc2.weight f4 [128, 256]
-0.05295715 -0.10734327 0.0033149377 -0.0194102 0.037942532 -0.03244662 0.028035235 -0.111677974
-0.058002606 -0.022354573 -0.07073158 -0.028472211 -0.050214685 -0.023907946 -0.00470615 -0.09840045
-0.11480545 -0.016016867 0.0031078015 0.0041064085 -0.03546715 -0.04758464 -0.09019287 -0.024393458
-0.031084485 -0.0016679338 -0.059004273 -0.09841264 -0.024895782 0.066512965 -0.044312403 -0.05064371
0.10733284 -0.051610757 -0.13004918 -0.06304028 -0.047460888 0.012914788 -0.07722502 -0.08144609
-0.016260957 -0.09191104 -0.040385887 0.023596257 0.010474172 -0.0005760979 -0.03066449 0.052734014
-0.094442904 -0.09739247 0.041553993 -0.013595306 0.047850072 0.044407472 -0.112254746 -0.010853147
0.039027873 -0.016766876 -0.05600083 0.018291906 -0.06415989 -0.103837684 0.0018244891 -0.07545999
-0.10887795 0.03270414 0.014965718 -0.01077054 0.023585752 -0.009343505 -0.073077045 -0.019456454
0.11789791 -0.017227478 -0.063233994 -0.002384707 0.015150449 0.02490481 -0.08290982 -0.03949229
-0.05591468 -0.007175781 -0.025892578 -0.06910715 -0.00639153 -0.0062999316 0.019632472 -0.062303815
-0.029182367 0.01985312 -0.053797927 -0.02773489 -0.010807675 -0.10280023 0.05807237 -0.002790749
-0.05119706 0.0068908427 0.052919183 -0.036090836 -0.08070172 -0.09282384 -0.10920583 -0.13100527
-0.050291214 -0.06206797 -0.031106556 -0.110869914 -0.0116583975 0.038093243 -0.096923575 -0.02410804
-0.056232613 0.06540761 -0.082594514 -0.10121454 -0.10253845 -0.05738409 -0.02831438 0.010008435
-0.11162219 -0.12048421 0.047275856 0.03411716 0.1038212 -0.0064237863 0.009860536 -0.039351646
-0.088299 -0.035317753 -0.080472276 0.038991906 -0.03318479 -0.007840335 -0.040052913 -0.07391371
-0.009435564 -0.04015246 0.038464453 -0.02588025 -0.06450543 0.019634495 -0.09716637 0.01992197
-0.02199147 0.029953746 -0.11391447 0.038362443 -0.071421266 -0.02839364 -0.031106068 -0.035209987
-0.042946864 0.04259909 -0.058609612 -0.017957492 -0.054297008 -0.18238164 -0.019010637 -0.14098556
-0.028091168 -0.017769096 -0.05557792 -0.045938782 0.011254558 0.01259236 0.02592135 0.05068436
-0.13949865 0.009469107 0.05803607 -0.042643428 -0.07725808 0.055588674 -0.056592263 -0.031377424
-0.0018817915 -0.09984742 0.0046881754 -0.06260343 0.030660665 -0.037523028 -0.037994877 0.07412116
-0.051576357 0.020462468 0.06722555 -0.028118117 -0.02780284 -0.07284988 0.06245874 -0.010484834
-0.009193669 -0.01217692 0.019534608 -0.013962362 0.011698174 0.026990205 -0.09555296 -0.0671249
-0.06404307 -0.043049254 0.0050792582 -0.052775603 0.024038611 -7.2382485e-05 -0.09092089 -0.039233778
0.021221671 -0.054871373 -0.05381571 -0.04237908 -0.050764766 -0.023168717 0.025858909 0.04390057
0.04009527 -0.094084844 -0.018630221 0.0046525383 -0.013466515 -0.093257174 -0.07880421 -0.037888464
0.013714114 -0.019021023 0.010852723 -0.023849633 -0.023501217 -0.025012128 0.0031195853 0.041625246
0.021422775 0.0036497512 0.043989282 -0.1221416 0.008889517 -0.08206716 0.025471488 -0.100193754
-0.117906466 -0.06317498 0.019893201 0.057024367 0.06585318 -0.047674 0.021658072 -0.06934703
-0.0073200874 0.0095685525 -0.023937033 -0.04988499 -0.082332514 -0.0063193645 -0.041253123 0.06909958
00000000: 99e9 58bd cad6 dbbd 6d3f 593b 2402 9fbc
00000010: a169 1b3d bfe6 04bd 26aa e53c 6cb7 e4bd
00000020: 2494 6dbd f020 b7bc b8db 90bd 8e3e e9bc
00000030: eaad 4dbd 99da c3bc 0c36 9abb 2d86 c9bd
00000040: 1f1f ebbd ce35 83bc 42ac 4b3b 0d8f 863b
00000050: 0146 11bd 1de8 42bd 0ab7 b8bd cad4 c7bc
00000060: e4a4 febc 929e daba 77ae 71bd 918c c9bd
00000070: 3df2 cbbc f337 883d ec80 35bd c76f 4fbd
00000080: 52d1 db3d cd65 53bd 9d2b 05be 431b 81bd
00000090: 5966 42bd 8c98 533c 2728 9ebd 35cd a6bd
000000a0: b335 85bc db3b bcbd ac6b 25bd f04c c13c
000000b0: dd9b 2b3c 4705 17ba 1934 fbbc 9fff 573d
000000c0: 486b c1bd b475 c7bd 8534 2a3d d9be 5ebc
000000d0: 70fe 433d 9ce4 353d d1e5 e5bd 66d1 31bc
000000e0: b1db 1f3d b05a 89bc 2061 65bd e8d8 953c
000000f0: 4366 83bd daa8 d4bd b223 ef3a c48a 9abd
00000100: 67fb debd c7f4 053d c532 753c eb76 30bc
00000110: e836 c13c 8015 19bc 6ba9 95bd 2463 9fbc
00000120: 7674 f13d a420 8dbc d380 81bd bf48 1cbb
00000130: 9739 783c 2c05 cc3c a0cc a9bd abc2 21bd
00000140: cb06 65bd d022 ebbb ac1c d4bc 0d88 8dbd
00000150: 0a70 d1bb a86f cebb 47d4 a03c 4932 7fbd
00000160: dc0f efbc 03a3 a23c 375b 5cbd 4834 e3bc
00000170: ad12 31bc ed88 d2bd 4bdd 6d3d 00e5 36bb
00000180: 02b4 51bd 94cc e13b c9c1 583d fcd3 13bd
00000190: f246 a5bd 6d1a bebd 4ea7 dfbd 3f26 06be
000001a0: 29fe 4dbd fc3a 7ebd 2dd3 febc c40f e3bd
000001b0: dd02 3fbc a907 1c3d de7f c6bd 397e c5bc
000001c0: 2b54 66bd 6df4 853d 5027 a9bd 9249 cfbd
000001d0: aeff d1bd 940b 6bbd 8ff3 e7bc 6bfa 233c
000001e0: 2d9a e4bd 6dc0 f6bd 54a4 413d 6fbe 0b3d
000001f0: 36a0 d43d a07e d2bb 168e 213c 312f 21bd
00000200: 1bd6 b4bd 59a9 10bd a6ce a4bd fab5 1f3d
00000210: c6ec 07bd c074 00bc 860e 24bd 1260 97bd
00000220: a097 1abc e876 24bd e78c 1d3d d102 d4bc
00000230: 6c1b 84bd 85d8 a03c 29ff c6bd 6633 a33c
00000240: 7527 b4bc 8f61 f53c fd4b e9bd f021 1d3d
00000250: 5045 92bd c799 e8bc 27d2 febc 5938 10bd
00000260: 0de9 2fbd 627c 2e3d a210 70bd 971b 93bc
00000270: 8a66 5ebd 41c2 3abe 32bc 9bbc 855e 10be
00000280: 731f e6bc 7f90 91bc aca5 63bd 4e2a 3cbd
00000290: 0a65 383c 3050 4e3c 0359 d43c 679a 4f3d
000002a0: bcd8 0ebe 5024 1b3c 3bb7 6d3d e0aa 2ebd
000002b0: 7c39 9ebd f3b0 633d 4acd 67bd 9d85 00bd
000002c0: 72a6 f6ba ce7c ccbd 449f 993b 3a36 80bd
000002d0: 132c fb3c bfb1 19bd 84a0 1bbd d6cc 973d
000002e0: bb41 53bd e8a0 a73c 8dad 893d f757 e6bc
000002f0: c8c2 e3bc 5132 95bd bcd4 7f3d 95c8 2bbc
00000300: 0ba1 16bc b481 47bc 0b07 a03c 64c2 64bc
00000310: b3a9 3f3c 901a dd3c 45b1 c3bd c878 89bd
00000320: 0329 83bd 6a54 30bd e86f a63b 3b2b 58bd
00000330: 9fec c43c 0dcc 97b8 bb34 babd 99b3 20bd
00000340: 12d9 ad3c cec0 60bd dd6d 5cbd b095 2dbd
00000350: b7ee 4fbd 52cc bdbc 10d6 d33c 16d1 333d
00000360: f03a 243d 8eaf c0bd 689e 98bc 5274 983b
00000370: a8a2 5cbc 9efd bebd 1a64 a1bd ef30 1bbd
00000380: 2ab1 603c fad1 9bbc 9fcf 313c 4e60 c3bc
00000390: a085 c0bc 3ce6 ccbc f571 4c3b 3c7f 2a3d
000003a0: d17e af3c aa30 6f3b 1b2e 343d 6025 fabd
000003b0: 56a5 113c d412 a8bd 95a9 d03c 6232 cdbd
000003c0: f278 f1bd e261 81bd 11f7 a23c 6292 693d
000003d0: 08de 863d d045 43bd 456c b13c d105 8ebd
000003e0: 58dd efbb 6bc5 1c3c 9917 c4bc 3454 4cbd
000003f0: f39d a8bd ac12 cfbb 09f9 28bd 1584 8d3d

fc2.bias f4 [128]
-0.06649872 -0.07548626 -0.009165221 0.029152343 -0.06436379 -0.02321697 -0.00598437 -0.047069233
0.032258853 -0.11915628 -0.10179126 -0.053593546 -0.040817164 0.028952487 0.18710968 -0.0065830904
0.020919245 -0.048114438 0.0851755 -0.04990512 -0.091470726 -0.0034325323 -0.02512052 -0.08643394
-0.043191668 -0.05207285 -0.07629786 0.00733112 -0.07319627 0.032509286 -0.0055748983 -0.02658214
-0.038958944 -0.055729065 -0.04967628 -0.025504043 -0.10828225 0.0071279844 -0.026082452 -0.07642202
-0.043329056 -0.031824727 -0.042076547 -0.083962575 -0.019348096 -0.045369502 -0.019528784 -0.08581505
-0.08729512 0.021761913 -0.0580032 -0.04678288 -0.1117918 -0.04936648 0.0038336827 -0.019203816
-0.028816858 0.042025175 -0.08185867 -0.09890614 -0.08925191 -0.013711407 -0.0489648 -0.03496485
-0.11197705 -0.0015405032 -0.05883329 0.04610461 -0.03962743 -0.04758477 -0.04539828 0.02173499
-0.023880037 -0.05224294 0.021293523 -0.11933469 0.02140531 -0.06038105 -0.15346007 -0.052243978
-0.095233805 -0.1051599 0.054772727 -0.018331014 -0.062348906 0.05372242 -0.08076647 -0.0703223
-0.02201979 -0.056194026 -0.03398972 0.013146609 -0.06919687 -0.013196836 -0.024782775 -0.0062377322
0.08236226 -0.12965496 -0.031229513 0.040469266 -0.09091981 -0.032826222 -0.020734483 0.0071207047
-0.04210609 0.0124146715 -0.039619032 -0.0284771 -0.05574614 0.1443944 -0.02309793 -0.079893194
0.0038417182 -0.02922128 -0.019313123 0.046161637 -0.045578867 -0.01374385 -0.18038844 -0.14146855
7.0154e-05 -0.087568685 -0.06648566 -0.026065974 -0.02212854 -0.13591146 -0.069578834 0.038563564
00000000: 7b30 88bd 8a98 9abd b929 16bc e5d0 ee3c
00000010: 2ad1 83bd 8431 bebc 8918 c4bb abcb 40bd
00000020: dc21 043d 3508 f4bd f077 d0bd e884 5bbd
00000030: e62f 27bd c42d ed3c ae99 3f3e f7b6 d7bb
00000040: d65e ab3c a513 45bd 7e70 ae3d 5069 4cbd
00000050: 0155 bbbd 56f4 60bb 8cc9 cdbc 4704 b1bd
00000060: bfe9 30bd 574a 55bd 0d42 9cbd e439 f03b
00000070: ede7 95bd 7528 053d a3ad b6bb cac2 d9bc
00000080: 6a93 1fbd 2944 64bd 5b79 4bbd dbed d0bc
00000090: 16c3 ddbd de91 e93b deaa d5bc 2683 9cbd
000000a0: cf79 31bd a55a 02bd 7558 2cbd 92f4 abbd
000000b0: e67f 9ebc 5fd5 39bd d4fa 9fbc cdbf afbd
000000c0: c9c7 b2bd 0a46 b23c c394 6dbd 689f 3fbd
000000d0: 19f3 e4bd 8234 4abd 863e 7b3b 5251 9dbc
000000e0: 5511 ecbc 9722 2c3d 85a5 a7bd 4d8f cabd
000000f0: b5c9 b6bd cfa5 60bc 508f 48bd 4d37 0fbd
00000100: 3954 e5bd b6ea c9ba 2dfb 70bd 30d8 3c3d
00000110: 5f50 22bd 3fe8 42bd 8cf3 39bd 940d b23c
00000120: 11a0 c3bc b1fc 55bd c16f ae3c bf65 f4bd
00000130: 305a af3c 1f52 77bd a324 1dbe c8fd 55bd
00000140: f109 c3bd 135e d7bd 5e59 603d ec2a 96bc
00000150: 9161 7fbd 0a0c 5c3d e468 a5bd 2305 90bd
00000160: d962 b4bc b52b 66bd ce38 0bbd e064 573c
00000170: 17b7 8dbd 8b37 58bc 3f05 cbbc e465 ccbb
00000180: 8bad a83d 45c4 04be 09d5 ffbc 1ac3 253d
00000190: 2a34 babd ca74 06bd 5ddb a9bc cd54 e93b
000001a0: 6f77 2cbd e866 4b3c 9147 22bd cf48 e9bc
000001b0: 1156 64bd 20dc 133e df37 bdbc 0b9f a3bd
000001c0: 56c5 7b3b 7761 efbc 8e36 9ebc fc13 3d3d
000001d0: e8b0 3abd e32d 61bc bfb7 38be 22dd 10be
000001e0: a41f 9338 3657 b3bd a229 88bd 4f88 d5bc
000001f0: e946 b5bc 602c 0bbe 597f 8ebd d4f4 1d3d

fc3.weight f4 [64, 128]
-0.05322044 -0.14923322 -0.23918404 -0.23617668 0.03935232 0.02662692 -0.021911794 -0.058192305
-0.030591229 0.005743727 -0.0818717 -0.070076525 0.05155975 -0.02382314 0.016220652 -0.019915223
-0.053532947 -0.15593386 -0.22671427 0.07011029 0.025630616 -0.041720394 0.009841612 -0.14656378
0.0064299186 0.047282178 0.04669804 0.04030711 -0.06400531 -0.084608145 0.079340056 -0.026157845
-0.016570171 0.0052072466 -0.10583578 -0.056094427 -0.018496739 -0.048493605 -0.06885426 -0.051380415
0.21747762 0.08135771 0.05093615 -0.047830705 -0.04854698 0.060079608 0.010185002 -0.05033422
-0.114217 -0.1159255 -0.09982356 0.068639606 -0.023647405 0.045757346 -0.05088995 0.05607623
-0.072440825 0.122518465 -0.032424144 -0.11328798 0.060413204 -0.17229559 0.03020479 -0.11637297
0.067541376 0.0041539194 -0.044880893 0.03198369 -0.01892483 -0.020559397 -0.02835852 -0.056978248
-0.22324713 -0.068026975 -0.0036182948 0.10573194 -0.2433839 -0.037956763 0.005577666 0.047256168
-0.077010885 0.048406355 0.14478332 -0.2897984 -0.119309865 -0.0019799955 0.062510304 -0.008625136
-0.0028054216 0.043217108 0.043694545 0.05472265 -0.06981374 0.048602343 -0.060259555 -0.017173393
0.1445553 -0.026136762 0.04115966 0.1461969 -0.07486026 -0.004752479 -0.01823257 -0.03531947
-0.05858762 -0.0045159925 -0.18691982 -0.017567597 -0.19327404 -0.067683354 -0.03631556 -0.031389702
-0.10802067 0.07864501 -0.098362654 -0.028893746 -0.03646391 -0.09128988 0.13068691 -0.11202363
-0.025882004 -0.055216067 -0.08644697 0.033857737 -0.025284791 0.07213668 -0.022828057 -0.020954464
-0.058889195 -0.054387134 -0.049390696 -0.014330182 -0.0119720055 -0.05628888 0.05691195 0.05321906
-0.046514913 -0.0075480295 -0.11272058 -0.116057746 0.01570575 -0.033487905 -0.07279888 -0.057987437
0.05707358 -0.06551869 -0.18591537 0.03026338 -0.042403523 -0.020211974 -0.011996233 -0.027487578
0.00047122253 0.057006408 -0.033582244 -0.053023376 0.03756431 -0.019996975 -0.017009525 -0.03401091
0.055241033 -0.061423123 -0.05537194 -0.016838858 -0.018332776 0.034114286 -0.11826115 0.013368247
-0.0066222 0.06457361 -0.15070656 -0.0580271 -0.03811023 -0.11914404 -0.048726 -0.04835323
0.017088475 0.011612405 -0.07780722 -0.0040748464 -0.025634559 -0.02800896 -0.0484471 -0.035392527
-0.06508198 -0.08531189 -0.038712583 0.06566274 -0.041379035 -0.10452439 0.08212013 0.026262518
0.056733333 0.057790555 -0.07154605 -0.08989855 -0.021438466 0.08853921 -0.008605698 -0.04098892
0.014044356 -0.031426795 0.08048313 -0.036111552 0.0061415522 -0.035572022 -0.16029118 0.003156572
-0.08577316 0.008488419 -0.117475905 -0.037832726 -0.052319787 -0.060283057 0.028648293 -0.056017358
-0.10320085 -0.08884414 -0.054475553 -0.03681498 0.081997685 0.07842953 -0.036581237 -0.047825262
-0.04550224 -0.03853662 0.063386165 0.013968805 -0.106628515 -0.047710016 -0.040690165 -0.049379665
-0.062834494 0.009458958 -0.038897224 0.08161429 -0.096362755 -0.2278 0.06470043 -0.062689185
-0.10085885 -0.06863511 0.042415522 0.005138705 0.09646227 -0.151773 -0.14582951 0.04494138
-0.0058201165 -0.015387888 -0.017035974 0.0001959038 -0.062028464 -0.07337402 -0.034651823 -0.021317331
00000000: adfd 59bd 98d0 18be a9ec 74be 4dd8 71be
00000010: e62f 213d b320 da3c 5d80 b3bc 0e5b 6ebd
00000020: 759a fabc e035 bc3b 5aac a7bd 4884 8fbd
00000030: 5130 533d bf28 c3bc 2ce1 843c 4025 a3bc
00000040: 5d45 5bbd 20ad 1fbe c927 68be fc95 8f3d
00000050: 4cf7 d13c 01e3 2abd b63e 213c d114 16be
00000060: 11b2 d23b f5aa 413d 7246 3f3d 1119 253d
00000070: 3715 83bd 0947 adbd 0a7d a23d fa48 d6bc
00000080: 2bbe 87bc 8da1 aa3b 6ec0 d8bd 45c3 65bd
00000090: 7986 97bc 3ba1 46bd 7603 8dbd 4574 52bd
000000a0: 74b2 5e3e df9e a63d 6da2 503d 21ea 43bd
000000b0: 33d9 46bd 0916 763d ffde 263c 412b 4ebd
000000c0: 9aea e9bd 596a edbd 4b70 ccbd ec92 8c3d
000000d0: 34b8 c1bc 0e6c 3b3d fb71 50bd 30b0 653d
000000e0: db5b 94bd f6ea fa3d 2ecf 04bd 8703 e8bd
000000f0: d673 773d 416e 30be 0970 f73c f454 eebd
00000100: 2253 8a3d 9a1d 883b 07d5 37bd 5401 033d
00000110: 3f08 9bbc 2e6c a8bc 2050 e8bc 0662 69bd
00000120: e59a 64be ba51 8bbd ea20 6dbb fd89 d83d
00000130: a139 79be 8d78 1bbd dbc4 b63b af8f 413d
00000140: e2b7 9dbd be45 463d 1442 143e 7560 94be
00000150: bb58 f4bd d0c2 01bb 6705 803d 7150 0dbc
00000160: 2adb 37bb 6c04 313d 0df9 323d dc24 603d
00000170: 82fa 8ebd 4013 473d b9d2 76bd 37af 8cbc
00000180: 4e06 143e c31c d6bc 0897 283d a4b4 153e
00000190: 5650 99bd afba 9bbb 785c 95bc 26ab 10bd
000001a0: 92f9 6fbd e4fa 93bb e967 3fbe ece9 8fbc
000001b0: a1e9 45be 929d 8abd a0bf 14bd 7d92 00bd
000001c0: f139 ddbd a310 a13d 5c72 c9bd 94b2 ecbc
000001d0: 2e5b 15bd 30f6 babd cad2 053e a56c e5bd
000001e0: 7f06 d4bc 3e2a 62bd 1c0b b1bd 69ae 0a3d
000001f0: 0d22 cfbc 65bc 933d e801 bbbc b2a8 abbc
00000200: cc35 71bd 0bc5 5ebd e64d 4abd 24c9 6abc
00000210: 3b26 44bc 2b8f 66bd 811c 693d 3bfc 593d
00000220: 6c86 3ebd 7655 f7bb 0cda e6bd afaf edbd
00000230: 58a9 803c 9d2a 09bd 9417 95bd 3c84 6dbd
00000240: fcc5 693d aa2e 86bd 9960 3ebe e8ea f73c
00000250: 51af 2dbd 9593 a5bc d98b 44bc a12d e1bc
00000260: 6b0e f739 8d7f 693d 898d 09bd 0a2f 59bd
00000270: 09dd 193d b2d0 a3bc 8f57 8bbc 064f 0bbd
00000280: 6c44 623d d096 7bbd b0cd 62bd a5f1 89bc
00000290: 9e2e 96bc 6cbb 0b3d e732 f2bd 7e06 5b3c
000002a0: 0aff d8bb 2b3f 843d d252 1abe d3ad 6dbd
000002b0: 7919 1cbd ca01 f4bd ea94 47bd 090e 46bd
000002c0: 21fd 8b3c f541 3e3c 6459 9fbd 4a86 85bb
000002d0: 91ff d1bc 0c73 e5bc 7770 46bd c1f7 10bd
000002e0: b349 85bd 00b8 aebd 1691 1ebd 307a 863d
000002f0: 107d 29bd e210 d6bd 992e a83d 7e24 d73c
00000300: 3661 683d cab5 6c3d bc86 92bd bb1c b8bd
00000310: b99f afbc 0c54 b53d eafe 0cbc ffe3 27bd
00000320: 4c1a 663c 62b9 00bd 57d4 a43d b5e9 13bd
00000330: 133f c93b f8b3 11bd 5f23 24be 7ede 4e3b
00000340: d7a9 afbd 0213 0b3c 3597 f0bd 7df6 1abd
00000350: 464d 56bd 5eeb 76bd d3af ea3c 7572 65bd
00000360: f85a d3bd ebf3 b5bd c221 5fbd 4ecb 16bd
00000370: 67ee a73d a99f a03d 35d6 15bd 6ce4 43bd
00000380: 8f60 3abd 93d8 1dbd 9bd0 813d 6add 643c
00000390: 0d60 dabd 946b 43bd bbaa 26bd 5542 4abd
000003a0: 5faf 80bd bff9 1a3c b252 1fbd 6525 a73d
000003b0: d659 c5bd 6744 69be a981 843d 3063 80bd
000003c0: 168f cebd 9190 8cbd e6bb 2d3d 9562 a83b
000003d0: 038e c53d 626a 1bbe 5554 15be 7414 383d
000003e0: adb6 bebb 7b1d 7cbc 078f 8bbc 876b 4d39
000003f0: 8f11 7ebd 1e45 96bd 12ef 0dbd afa1 aebc

fc3.bias f4 [64]
-0.030479314 -0.24978343 -0.19013178 -0.0062341415 -0.17286251 -0.20481668 -0.12394949 0.1938165
0.1334163 0.33003822 0.03147283 0.03219907 -0.108091414 -0.15805627 -0.1687073 -0.11699617
-0.11197344 -0.20932771 0.05049424 0.061959602 -0.018522596 -0.083000466 -0.047996588 -0.17224544
-0.14412653 -0.14098583 -0.17374164 -0.09914845 -0.1664923 0.12755784 -0.17419831 -0.047426067
-0.06480556 -0.085177146 0.0032589943 -0.15307283 -0.3234606 -0.069525935 0.010147537 0.30104503
0.013309874 -0.1262677 0.018565137 -0.27444884 -0.19340242 -0.16087592 -0.14357941 -0.01782912
-0.28974825 0.030827377 0.15748152 -0.15926373 -0.05875535 -0.058047686 -0.21482652 -0.18267776
-0.00904342 -0.19320151 0.1859007 -0.25335926 -0.17659117 -0.1712063 -0.15428336 0.38237157
00000000: c1af f9bc 3ac7 7fbe e8b1 42be c547 ccbb
00000010: df02 31be 77bb 51be 3bd9 fdbd d577 463e
00000020: 489e 083e c5fa a83e a7e9 003d 2ce3 033d
00000030: 085f ddbd 81d9 21be 9bc1 2cbe b09b efbd
00000040: 5552 e5bd 015a 56be 0cd3 4e3d 5ac9 7d3d
00000050: b3bc 97bc 26fc a9bd 1298 44bd 1c61 30be
00000060: e895 13be 975e 10be 54e9 31be 580e cbbd
00000070: f57c 2abe 869e 023e 0b61 32be d641 42bd
00000080: c7b8 84bd 5b71 aebd da94 553b 20bf 1cbe
00000090: a19c a5be 9d63 8ebd db41 263c 9322 9a3e
000000a0: a811 5a3c 524c 01be ea15 983c 8f84 8cbe
000000b0: 490b 46be a8bc 24be 7b06 13be 600e 92bc
000000c0: e259 94be b289 fc3c d642 213e 0816 23be
000000d0: 73a9 70bd 69c3 6dbd 7cfb 5bbe e10f 3bbe
000000e0: da2a 14bc 9ed6 45be c15c 3e3e 4eb8 81be
000000f0: 51d4 34be b450 2fbe 75fc 1dbe 35c6 c33e

fc4.weight f4 [32, 64]
-0.07431314 -0.0018562163 -0.11896775 -0.011756192 0.11121848 -0.20908539 0.041820224 -0.17853726
-0.063295394 -0.0049520475 -0.04051295 0.0044026 0.015052256 0.018852694 -0.0948189 0.027687445
0.010606127 0.07831794 -0.13124381 0.05877889 -0.21825254 -0.17270052 0.024985451 0.12375763
0.039416738 -0.01058222 -0.0053053927 -0.07489115 0.059905495 -0.116786495 0.020607207 0.018993132
-0.050575275 -0.04374755 -0.01114969 0.035057627 -0.05705526 -0.14538318 -0.12360403 -0.171604
-0.08369217 -0.12776089 -0.09538096 -0.037786104 -0.035334643 0.08796917 0.0026680296 0.12716782
-0.025834616 -0.09212477 -0.124437466 -0.19578378 -0.13065146 0.052018534 0.076359786 -0.09029013
0.09196394 -0.16376713 -0.009253418 -0.12159481 0.0007055911 0.011876937 -0.07163884 -0.11068175
-0.008769887 -0.005903331 0.121199474 -0.23837301 0.00029019846 0.039329153 -0.115441285 -0.10756048
-0.084043585 -0.013360686 -0.16818507 0.035379052 -0.013499112 -0.23932484 -0.13728169 -0.08827511
-0.10282355 0.0155843645 -0.10599156 -0.1247824 -0.02089101 -0.06703756 -0.12610522 0.0068546417
-0.092668414 -0.139707 -0.08484105 -0.1745598 0.022172961 0.053521004 -0.122371234 -0.06436472
0.019636411 -0.11714878 -0.08641488 -0.12486186 -0.13243103 -0.06512045 -0.0657982 -0.1643648
-0.17323492 0.086508706 -0.13117275 -0.021321602 0.02582083 -0.15510637 -0.03177058 -0.07575266
-0.06271545 0.015004863 -0.13713478 0.11940198 0.002317719 -0.076290146 -0.058126047 -0.16582257
-0.071031556 -0.050999995 -0.07867177 -0.08011929 -0.0792582 -0.047531553 -0.050717026 -0.1422977
0.068699196 -0.12114655 0.1041152 -0.08449397 0.06859316 0.07874002 -0.056589745 0.0053928834
0.24649276 -0.100876644 -0.13368899 0.07685861 -0.18954949 0.037269324 0.0062492527 0.058302335
-0.09091013 -0.08823682 -0.06883179 -0.026840584 0.29904935 -0.00619875 0.037675727 0.08449121
-0.0027598217 0.017440168 0.20692454 -0.04640813 -0.06895855 -0.09100055 0.27086228 0.18218958
0.13853712 -0.14951679 -0.0644856 0.03927539 -0.05600078 -0.16340403 0.080496185 0.15258145
-0.057288058 0.12741551 0.09085277 -0.09085041 -0.082227424 0.07872554 -0.17844622 -0.25077197
0.098293565 0.21382274 -0.28904718 -0.071577035 -0.31505468 -0.025654089 -0.09929272 0.080699205
-0.05998232 -0.042096168 -0.12526762 0.0067262375 0.023981847 0.08874112 -0.10578428 0.015327169
-0.38104567 0.0039557414 0.008435789 -0.1548116 0.08251495 0.027865766 0.060683656 -0.14842515
-0.20410126 -0.017060533 0.02453147 -0.06626529 -0.17656572 -0.10986824 -0.072810814 0.033858243
0.014374617 0.06381957 -0.24424553 0.021269117 -0.2226337 -0.00681074 -0.065104485 0.088619485
-0.037199397 -0.0036227598 0.01352525 -0.05932557 0.1251129 -0.2895477 -0.1613679 -0.019055305
0.06955075 -0.09158876 -0.04767015 -0.23904184 0.026636627 0.10667461 -0.27778134 -0.035925984
-0.14209016 0.0330455 -0.023777824 -0.16101512 0.021546287 -0.26252022 0.2875362 0.05622609
-0.020752262 -0.057464067 -0.007947744 -0.03260854 -0.15439217 0.05968893 0.0804813 0.0065296944
0.18930657 0.034887783 0.097616665 0.09031136 0.09441924 -0.10716911 -0.11842671 -0.18884033
00000000: 7d31 98bd 494c f3ba 5da5 f3bd 0b9d 40bc
00000010: 84c6 e33d 7b1a 56be af4b 2b3d 79d2 36be
00000020: 04a1 81bd c944 a2bb e8f0 25bd b043 903b
00000030: bd9d 763c f770 9a3c 6930 c2bd c8d0 e23c
00000040: 52c5 2d3c 2865 a03d c764 06be 22c2 703d
00000050: 987d 5fbe 68d8 30be 4aae cc3c a474 fd3d
00000060: 7273 213d 0c61 2dbc dcd8 adbb 8860 99bd
00000070: 775f 753d c22d efbd 72d0 a83c 7c97 9b3c
00000080: 0528 4fbd a230 33bd 30ad 36bc 9698 0f3d
00000090: c7b2 69bd 54df 14be 1c24 fdbd f5b8 2fbe
000000a0: cd66 abbd c0d3 02be 1857 c3bd 9ac5 1abd
000000b0: 0fbb 10bd 2e29 b43d 1cda 2e3b 4838 023e
000000c0: 1ea3 d3bc e9ab bcbd 12d9 febd 8b7b 48be
000000d0: 7fc9 05be 6311 553d 8562 9c3d 08ea b8bd
000000e0: 9757 bc3d 92b2 27be a69b 17bc b306 f9bd
000000f0: 6bf7 383a 7c97 423c 62b7 92bd 1dad e2bd
00000100: 92af 0fbc bb70 c1bb 6e37 f83d 0e18 74be
00000110: c725 9839 9b17 213d 7b6c ecbd ab48 dcbd
00000120: 0b1f acbd c7e6 5abc b538 2cbe a0e9 103d
00000130: 612b 5dbc 9211 75be 9293 0cbe 95c9 b4bd
00000140: 2795 d2bd 9055 7f3c 1a12 d9bd ea8d ffbd
00000150: a023 abbc fd4a 89bd ba21 01be e79c e03b
00000160: f0c8 bdbd 5a0f 0fbe 25c1 adbd cebf 32be
00000170: 12a4 b53c d738 5b3d c59d fabd a6d1 83bd
00000180: 8adc a03c b3eb efbd 49fa b0bd 93b7 ffbd
00000190: 009c 07be df5d 85bd 35c1 86bd 3f4f 28be
000001a0: 7f64 31be 7a2b b13d 2652 06be a4aa aebc
000001b0: 3586 d33c 34d4 1ebe de21 02bd 3624 9bbd
000001c0: f570 80bd f5d6 753c 0f6d 0cbe 0689 f43d
000001d0: dfe4 173b 023e 9cbd 9415 6ebd 64cd 29be
000001e0: fe78 91bd 5fe5 50bd aa1e a1bd 9515 a4bd
000001f0: 2052 a2bd 72b0 42bd a8bc 4fbd 7db6 11be
00000200: 2ab2 8c3d af1b f8bd 5a3a d53d 2d0b adbd
00000210: 927a 8c3d 7342 a13d a6ca 67bd c9b6 b03b
00000220: 9968 7c3e 6a98 cebd c4e5 08be 0c68 9d3d
00000230: 4319 42be b8a7 183d 88c6 cc3b 6ece 6e3d
00000240: 172f babd 82b5 b4bd aef7 8cbd c9e0 dbbc
00000250: ff1c 993e e21e cbbb dd51 1a3d ba09 ad3d
00000260: 20de 34bb afde 8e3c 07e4 533e 7416 3ebd
00000270: 243a 8dbd 7f5e babd 76ae 8a3e e88f 3a3e
00000280: addc 0d3e ee1a 19be 0711 84bd 3bdf 203d
00000290: 1361 65bd 6353 27be 2fdb a43d 503e 1c3e
000002a0: e2a6 6abd 3679 023e 0411 ba3d c80f babd
000002b0: da66 a8bd db3a a13d 9bba 36be 2f65 80be
000002c0: 234e c93d 59f4 5a3e fefd 93be fb96 92bd
000002d0: d94e a1be 8628 d2bc fb59 cbbd a045 a53d
000002e0: 05b0 75bd 086d 2cbd 2846 00be c567 dc3b
000002f0: 9475 c43c e8bd b53d 6ea5 d8bd ce1e 7b3c
00000300: 6b18 c3be 2a9f 813b 4336 0a3c ef86 1ebe
00000310: 99fd a83d bf46 e43c 6d8f 783d c3fc 17be
00000320: ecff 50be 88c2 8bbc 39f6 c83c 19b6 87bd
00000330: a5cd 34be 9a02 e1bd d61d 95bd f1ae 0a3d
00000340: 8383 6b3c d6b3 823d 801b 7abe 923c ae3c
00000350: 17fa 63be a12c dfbb 8055 85bd 227e b53d
00000360: 655e 18bd d36b 6dbb 0399 5d3c 5eff 72bd
00000370: 991d 003e 993f 94be a03d 25be df19 9cbc
00000380: a070 8e3d e392 bbbd c641 43bd 62c7 74be
00000390: 0e35 da3c 3878 da3d 5b39 8ebe 2027 13bd
000003a0: 1580 11be b85a 073d b6c9 c2bc 26e1 24be
000003b0: d781 b03c 0d69 86be f237 933e 544d 663d
000003c0: a600 aabc 715f 6bbd 4137 02bc 8890 05bd
000003d0: fb18 1ebe 617c 743d 61d3 a43d 0cf7 d53b
000003e0: 95d9 413e 7ee6 0e3d 3feb c73d 2af5 b83d
000003f0: e05e c13d 7a7b dbbd b489 f2bd 5c5f 41be

fc4.bias f4 [32]
0.075208634 -0.09180308 0.039358623 -0.21271324 -0.24275672 -0.24307892 -0.11226991 -0.109489866
-0.10127425 -0.18514223 0.028950421 -0.14702244 -0.13778883 -0.06816281 -0.003031024 -0.18059084
-0.13007542 0.09568568 -0.015012751 0.009637943 -0.03346865 0.0012643369 0.092819065 -0.111852445
-0.27407652 0.29855636 0.003614133 -0.0030200977 -0.114327215 -0.108420745 0.162527 -0.19117674
00000000: fc06 9a3d 4103 bcbd 8236 213d 80d1 59be
00000010: 3895 78be aee9 78be c4ed e5bd 393c e0bd
00000020: e068 cfbd ed95 3dbe 6f29 ed3c 0d8d 16be
00000030: 8418 0dbe f198 8bbd 25a4 46bb ceec 38be
00000040: 7e32 05be dbf6 c33d 0bf8 75bc 76e8 1d3c
00000050: 6c16 09bd 1bb8 a53a ec17 be3d e512 e5bd
00000060: c253 8cbe 61dc 983e 17db 6c3b d5ec 45bb
00000070: 6324 eabd b20b debd 7a6d 263e d6c3 43be

fc5.weight f4 [1, 32]
0.0047207945 0.02582333 0.030289438 -0.044854984 0.033555947 -0.0017017712 0.001625947 -0.037822217
-0.070069574 0.001821349 0.03718246 -0.010583361 -0.035831735 -0.03681973 -0.043063108 0.009133164
-0.018254444 -0.07532692 0.008222351 -0.13293543 -0.07065892 0.032576635 -0.055193383 -0.051668774
0.025864508 0.07385692 -0.08258832 0.037816837 -0.020268517 -0.02408801 0.060789265 -0.066684045
00000000: e5b0 9a3b 738b d33c 8e21 f83c dcb9 37bd
00000010: f671 093d f70d dfba ba1d d53a 78eb 1abd
00000020: a380 8fbd 55ba ee3a a34c 183d d565 2dbc
00000030: 4cc4 12bd 49d0 16bd f162 30bd 44a3 153c
00000040: 588a 95bc 0045 9abd 0ab7 063c 3a20 08be
00000050: a0b5 90bd 146f 053d 7512 62bd a3a2 53bd
00000060: cee1 d33c 4c42 973d 1124 a9bd d4e5 1a3d
00000070: 290a a6bc 3854 c5bc 2afe 783d a591 88bd
