scripts/built_models/torch_pl.pth (torch, 692499 bytes, 9 tensors)

fc1.weight f4 [256, 503]
0.08841861 -0.0028651804 -0.014596548 0.021567386 -0.084542565 -0.1601012 0.3437655 0.15585384
0.05599997 0.048673134 -0.10844285 0.14397997 -0.15618168 -0.080031335 0.11485885 -0.093072414
-0.032665666 0.16891408 -0.1029917 0.033992767 -0.0051296856 0.09872673 -0.0096624205 0.09301421
-0.031692795 0.06168381 -0.025759295 -0.10226723 0.123060785 -0.06964624 -0.14708877 0.08159103
-0.0038190952 0.0433109 -0.19896044 0.07950915 -0.16456608 -0.19735217 0.18375248 -0.19263421
-0.30571094 0.015583992 0.12744457 0.016232088 0.15208077 0.06621848 -0.05001182 -0.021886514
0.18264158 0.08887621 -0.054712612 0.11239939 -0.07643746 -0.0017517405 0.029782731 -0.09453043
0.14428453 -0.27443716 0.23876052 0.24714959 0.18008731 -0.033743463 0.063721254 -0.019282077
0.019955087 0.020508427 -0.0010000495 0.05742571 -0.14807971 0.0959741 -0.049486183 -0.04771566
0.08004614 -0.14285432 0.17529167 -0.048011582 -0.058153875 0.056218512 0.056006067 0.13769688
-0.024618113 0.089326754 0.16592644 0.109435536 -0.008719311 0.07040359 0.05245407 -0.19647864
0.1808633 0.09052956 0.027790215 0.1106702 0.09559962 0.09558584 0.15165533 -0.054458175
0.11746325 -0.19167586 0.19163601 0.15980951 -0.017694492 0.069163434 -0.13753682 0.24941137
0.006086058 -0.06267433 0.086777516 -0.008169326 0.019092564 -0.09507117 0.36139318 -0.13510585
0.14982456 -0.07053014 0.1157752 0.00590837 0.03374251 -0.106328405 -0.14525609 0.0034796903
0.10826522 0.015096838 0.1363551 -0.074178755 0.081438586 -0.033835053 0.006920459 -0.018143307
0.014860571 0.123547085 -0.2481513 0.17111947 -0.078788094 -0.046170987 -0.07928354 -0.13986282
0.07060489 -0.1773336 0.022749089 -0.035011124 -0.0015182139 0.05384758 0.010141074 0.029162942
0.077625796 0.004317715 0.09332299 0.0112478705 -0.10565004 -0.22568806 0.13769639 0.022647934
-0.11051536 0.0934689 0.04061932 -0.0025163363 0.028718518 -0.010953062 -0.0883284 -0.19295292
0.16266851 0.055138957 -0.09296409 0.12922098 -0.1044037 0.17945437 -0.0527469 -0.17295589
0.06858036 -0.062627316 -0.08245928 0.07855165 0.2749796 -0.21667089 0.15384057 0.06100888
0.062367845 0.013876428 0.12055277 -0.17571075 -0.11624161 0.28794944 -0.10629421 -0.17253555
0.06875906 0.05583946 0.09217029 -0.02632271 0.02286624 0.00067615137 0.0014658428 0.08639764
-0.21211977 0.1240318 -0.063919716 0.0059698336 0.14536396 -0.062239368 0.15317675 0.18147314
0.08234568 0.11085956 0.05171976 0.037010763 0.010787649 -0.0946311 -0.1480793 0.10586815
0.12074535 0.08245131 0.03078667 -0.09428002 0.12306466 0.0200461 0.0066374857 0.083733864
-0.11885813 -0.19398521 -0.07053209 0.24871892 -0.21654971 -0.17770508 0.01596469 -0.13608634
-0.08894817 -0.032036338 -0.14593104 -0.038619682 0.24565263 -0.031233463 0.0635307 0.086962685
0.1448185 -0.03164275 0.05907197 -0.2499674 0.25314084 0.07996189 0.11311657 0.07776713
0.018337453 -0.042460702 -0.07598069 0.0322078 -0.0024299151 0.1698784 -0.0073122014 0.27528656
0.18498676 -0.09156239 0.15501167 -0.048887633 -0.021156527 -0.012734804 0.2010305 -0.1648609
00000000: d114 b53d c0c5 3bbb 5c26 6fbc 16ae b03c
00000010: a724 adbd 92f1 23be 0802 b03e 2698 1f3e
00000020: 3960 653d 7b5d 473d 4917 debd 7c6f 133e
00000030: 17ee 1fbe 78e7 a3bd 1e3b eb3d c09c bebd
00000040: 6fcc 05bd d0f7 2c3e 50ed d2bd 003c 0b3d
00000050: ec16 a8bb 3d31 ca3d 214f 1ebc 3c7e be3d
00000060: 4ed0 01bd 2aa8 7c3d 2805 d3bc 7b71 d1bd
00000070: 4b07 fc3d b0a2 8ebd 709e 16be 3319 a73d
00000080: c949 7abb c566 313d 49bc 4bbe b1d5 a23d
00000090: 0384 28be b016 4abe 9c29 3c3e e741 45be
000000a0: 2586 9cbe 0054 7f3c d480 023e 28f9 843c
000000b0: 10bb 1b3e 8e9d 873d 32d9 4cbd 594b b3bc
000000c0: 6506 3b3e bb04 b63d 551a 60bd a731 e63d
000000d0: 3e8b 9cbd a89a e5ba eafa f33c 2c99 c1bd
000000e0: 53bf 133e 0783 8cbe a37d 743e c814 7d3e
000000f0: cf68 383e 9636 0abd 4a80 823d 72f5 9dbc
00000100: da78 a33c 4a01 a83c 1814 83ba 3937 6b3d
00000110: 35a2 17be 128e c43d 06b2 4abd 7f71 43bd
00000120: 3bef a33d 6748 12be a97f 333e cba7 44bd
00000130: c232 6ebd 6245 663d 9e66 653d 6900 0d3e
00000140: edab c9bc f2f0 b63d 9fe8 293e bd1f e03d
00000150: 71db 0ebc c22f 903d 14da 563d b231 49be
00000160: 3b34 393e 9067 b93d 4ea8 e33c 0fa7 e23d
00000170: bcc9 c33d 82c2 c33d 894b 1b3e 890f 5fbd
00000180: 9390 f03d ad46 44be 3b3c 443e 1ba5 233e
00000190: 0af4 90bc 8fa5 8d3d 74d6 0cbe b265 7f3e
000001a0: 8e6d c73b 665b 80bd 69b8 b13d a3d8 05bc
000001b0: 0268 9c3c acb4 c2bd 8708 b93e 3059 0abe
000001c0: 9c6b 193e 1b72 90bd 8c1b ed3d 009b c13b
000001d0: 9635 0a3d b5c2 d9bd 03be 14be 840b 643b
000001e0: 28ba dd3d ba58 773c aca0 0b3e 08eb 97bd
000001f0: 46c9 a63d a096 0abd 05c5 e23b 46a1 94bc
00000200: c179 733c 4106 fd3d 601b 7ebe f139 2f3e
00000210: a75b a1bd ca1d 3dbd 695f a2bd 3338 0fbe
00000220: 4c99 903d f096 35be 4c5c ba3c d367 0fbd
00000230: cefe c6ba 488f 5c3d bf26 263c 1fe7 ee3c
00000240: 46fa 9e3d 9e7b 8d3b 2020 bf3d fd48 383c
00000250: 0c5f d8bd c51a 67be 4800 0d3e 2988 b93c
00000260: e155 e2bd 9f6c bf3d 7260 263d 1ee9 24bb
00000270: 1943 eb3c 7974 33bc 85e5 b4bd 7395 45be
00000280: 9392 263e 63d9 613d f563 bebd 8152 043e
00000290: 9bd1 d5bd e3c2 373e 220d 58bd 591b 31be
000002a0: dc73 8c3d c042 80bd 69e0 a8bd b0df a03d
000002b0: 20ca 8c3e f9de 5dbe 6288 1d3e 73e4 793d
000002c0: 6d75 7f3d f559 633c 5fe4 f63d 85ed 33be
000002d0: 1510 eebd 1c6e 933e c7b0 d9bd 29ad 30be
000002e0: 8dd1 8c3d ebb7 643d c7c3 bc3d b9a2 d7bc
000002f0: fb51 bb3c c03f 313a 8621 c03a 3ff1 b03d
00000300: ed35 59be 6204 fe3d 57e8 82bd 989e c33b
00000310: 4ada 143e b5ee 7ebd 5eda 1c3e 18d4 393e
00000320: daa4 a83d 560a e33d 19d8 533d 9998 173d
00000330: aebe 303c f3cd c1bd 1aa2 17be 67d1 d83d
00000340: 5749 f73d 3bdc a83d 5434 fc3c e215 c1bd
00000350: 5309 fc3d b837 a43c 447f d93b a97c ab3d
00000360: e46b f3bd 0fa4 46be 2173 90bd 2cb0 7e3e
00000370: 35bf 5dbe 52f8 35be 62c8 823c 385a 0bbe
00000380: 752a b6bd 8938 03bd f26e 15be ac2f 1ebd
00000390: 5d8c 7b3e 52dd ffbc 621c 823d 7e19 b23d
000003a0: 4d4b 143e d49b 01bd 73f5 713d 74f7 7fbe
000003b0: ad9b 813e 0fc3 a33d a9a9 e73d 6044 9f3d
000003c0: 6d38 963c 46eb 2dbd c49b 9bbd 53ec 033d
000003d0: 363f 1fbb 9af4 2d3e 319b efbb 5cf2 8c3e
000003e0: 2b6d 3d3e 1085 bbbd 61bb 1e3e 663e 48bd
000003f0: 7450 adbc a4a5 50bc f0da 4d3e 4cd1 28be

fc1.bias f4 [256]
-0.5853453 -0.3530759 -0.5915462 -0.5056885 -0.46240994 -0.39685446 -0.5565976 -0.5276901
-0.4095946 -0.7244767 -0.5972516 -0.4800153 -0.61318916 -0.50807613 -0.65161854 -0.24345575
-0.34703085 -0.54406685 -0.514085 -0.47370934 -0.7554833 -0.44901288 -0.6281275 -0.3556196
-0.6274494 -0.33206606 -0.315364 -0.4778258 -0.52981913 -0.5445728 -0.3774148 -0.6673902
-0.4112655 -0.57072675 -0.37844312 -0.47596112 -0.6365596 -0.5726811 -0.6384664 -0.49583364
-0.52654463 -0.39903712 -0.39872798 -0.5498602 -0.5702337 -0.4964897 -0.42276362 -0.38574612
-0.479 -0.5614364 -0.64397144 -0.40538457 -0.39278442 -0.38819507 -0.6194271 -0.527314
-0.22914585 -0.4272502 -0.49483955 -0.5694826 -0.4002574 -0.5579797 -0.5980872 -0.3645381
-0.63376325 -0.5408598 -0.42904425 -0.5882264 -0.39760745 -0.3847312 -0.4988321 -0.37204513
-0.39239565 -0.5070648 -0.43254057 -0.45486602 -0.676568 -0.47760263 -0.4310198 -0.3449978
-0.44019794 -0.42331606 -0.5308056 -0.5681272 -0.52468115 -0.47694257 -0.48096424 -0.42086986
-0.58288544 -0.454335 -0.64306104 -0.44677988 -0.42605564 -0.34278283 -0.45741338 -0.38419142
-0.44849935 -0.38754907 -0.4477562 -0.71642107 -0.51452637 -0.48042953 -0.39476207 -0.38548672
-0.41867474 -0.4207382 -0.5867984 -0.3416014 -0.61757326 -0.5724077 -0.5964763 -0.50476503
-0.42483926 -0.5422265 -0.53267354 -0.47918758 -0.4540478 -0.46596986 -0.51972497 -0.4458158
-0.5104563 -0.4337913 -0.37208903 -0.43819305 -0.4534292 -0.45773917 -0.50454295 -0.47831318
-0.49076116 -0.39437968 -0.6649941 -0.30319452 -0.6440965 -0.45412084 -0.68451196 -0.5298856
-0.5093403 -0.59190744 -0.5647523 -0.4545103 -0.5628396 -0.6050598 -0.44937292 -0.5330845
-0.40849835 -0.48547456 -0.43594337 -0.38302332 -0.23056075 -0.35490274 -0.45143822 -0.2967045
-0.59094524 -0.48797092 -0.5223965 -0.4519418 -0.58772284 -0.51109713 -0.4736176 -0.5292298
-0.5937479 -0.4153185 -0.595407 -0.5076247 -0.43093777 -0.4357147 -0.49834093 -0.2364507
-0.50717103 -0.55241734 -0.733068 -0.4615186 -0.64895153 -0.4521252 -0.40157962 -0.51015884
-0.48925802 -0.40692818 -0.5822426 -0.33215585 -0.6150463 -0.4482113 -0.6042473 -0.44194996
-0.5806999 -0.5078063 -0.37000576 -0.5785812 -0.5346026 -0.41815266 -0.41143638 -0.50633466
-0.38418826 -0.4999386 -0.7151826 -0.3852305 -0.2807355 -0.6361479 -0.41835725 -0.39573637
-0.45038554 -0.6375632 -0.6568187 -0.4778371 -0.50364673 -0.5350929 -0.47506705 -0.42463517
-0.66833067 -0.46375135 -0.5025322 -0.26811308 -0.56159633 -0.54384166 -0.6366096 -0.4326673
-0.48085004 -0.6265196 -0.5262209 -0.40710008 -0.5192711 -0.46934697 -0.4718681 -0.4363207
-0.4164153 -0.48871765 -0.46382907 -0.5546303 -0.38583454 -0.62437874 -0.60974836 -0.39139614
-0.49273604 -0.5553986 -0.68522936 -0.43009737 -0.51398003 -0.31074005 -0.51377434 -0.44888234
-0.60651964 -0.4674366 -0.5122603 -0.45808986 -0.52529454 -0.4378207 -0.5218076 -0.22959545
-0.613112 -0.2637848 -0.7163025 -0.4990142 -0.5258125 -0.41560018 -0.7053698 -0.5182025
00000000: 31d9 15bf 5dc6 b4be 926f 17bf cd74 01bf
00000010: ffc0 ecbe 8230 cbbe 2e7d 0ebf b316 07bf
00000020: 62b6 d1be 4e77 39bf 7be5 18bf 91c4 f5be
00000030: f7f9 1cbf 4711 02bf 79d0 26bf 774c 79be
00000040: 07ae b1be f747 0bbf 139b 03bf 088a f2be
00000050: 5b67 41bf 04e5 e5be f7cc 20bf c613 b6be
00000060: 86a0 20bf 9004 aabe 6477 a1be 95a5 f4be
00000070: 3aa2 07bf 1f69 0bbf 833c c1be 16da 2abf
00000080: 6491 d2be 261b 12bf 4cc3 c1be 2db1 f3be
00000090: 92f5 22bf 3b9b 12bf 8972 23bf e8dd fdbe
000000a0: a1cb 06bf 984e ccbe 1326 ccbe a3c3 0cbf
000000b0: d6fa 11bf e633 febe 7974 d8be 8480 c5be
000000c0: 7d3f f5be 4cba 0fbf 50db 24bf 918e cfbe
000000d0: 0a1b c9be 81c1 c6be c692 1ebf 0dfe 06bf
000000e0: 36a5 6abe 8ac0 dabe 9c5b fdbe 9dc9 11bf
000000f0: 8aee ccbe c2d7 0ebf 3e1c 19bf bda4 babe
00000100: 4f3e 22bf ca75 0abf b0ab dbbe 0196 16bf
00000110: 3493 cbbe 7dfb c4be ec66 ffbe b37c bebe
00000120: 15e8 c8be 00cf 01bf f575 ddbe 33e4 e8be
00000130: 8f33 2dbf 5588 f4be a1ae dcbe 8da3 b0be
00000140: a061 e1be e2bc d8be e0e2 07bf c970 11bf
00000150: 8151 06bf d131 f4be f240 f6be 417c d7be
00000160: fb37 15bf 999e e8be a69f 24bf 55c0 e4be
00000170: f723 dabe 3b81 afbe 1632 eabe bdb4 c4be
00000180: b5a1 e5be d56c c6be 4d40 e5be 5f67 37bf
00000190: 00b8 03bf dcfa f5be 411e cabe 845e c5be
000001a0: 895c d6be ff6a d7be 6c38 16bf 61e6 aebe
000001b0: 4819 1ebf 5089 12bf acb2 18bf 4838 01bf
000001c0: 8884 d9be 5bcf 0abf 4b5d 08bf 1358 f5be
000001d0: f478 e8be 9a93 eebe b20c 05bf f841 e4be
000001e0: 44ad 02bf e519 debe 7482 bebe d75a e0be
000001f0: df27 e8be ca5c eabe ba29 01bf 77e5 f4be
00000200: 0c45 fbbe 22ec c9be 0e3d 2abf 503c 9bbe
00000210: 82e3 24bf 8782 e8be 2d3c 2fbf 95a6 07bf
00000220: 2064 02bf 3f87 17bf 9b93 10bf 93b5 e8be
00000230: 4216 10bf 33e5 1abf 3514 e6be 3a78 08bf
00000240: b226 d1be 1f90 f8be f833 dfbe a21b c4be
00000250: 1e18 6cbe d0b5 b5be e922 e7be a7e9 97be
00000260: 3048 17bf 53d7 f9be c7bb 05bf ea64 e7be
00000270: 0175 16bf 43d7 02bf 027e f2be 9b7b 07bf
00000280: ddff 17bf a0a4 d4be 986c 18bf b1f3 01bf
00000290: e0a3 dcbe ff15 dfbe 8b26 ffbe 2220 72be
000002a0: f6d5 01bf 396b 0dbf 58aa 3bbf 2a4c ecbe
000002b0: b021 26bf f47c e7be d89b cdbe c599 02bf
000002c0: 0780 fabe e458 d0be da0d 15bf 5510 aabe
000002d0: ad73 1dbf f47b e5be f3af 1abf 4447 e2be
000002e0: c0a8 14bf 98ff 01bf 6571 bdbe e61d 14bf
000002f0: b7db 08bf 1b18 d6be caa7 d2be 269f 01bf
00000300: 53b4 c4be f4f7 ffbe 3516 37bf ef3c c5be
00000310: 90bc 8fbe 97da 22bf ec32 d6be f59d cabe
00000320: ef98 e6be 5837 23bf 4525 28bf 10a7 f4be
00000330: feee 00bf d9fb 08bf fd3b f3be c869 d9be
00000340: b817 2bbf d170 edbe f3a5 00bf 1e46 89be
00000350: c7c4 0fbf 3539 0bbf d9f8 22bf 9186 ddbe
00000360: fa31 f6be 9763 20bf 6ab6 06bf 6c6f d0be
00000370: f3ee 04bf 3f4e f0be b298 f1be 6d65 dfbe
00000380: 6334 d5be 3339 fabe 017b edbe 40fc 0dbf
00000390: 1b8c c5be 49d7 1fbf 7818 1cbf 1365 c8be
000003a0: e647 fcbe 9a2e 0ebf 316b 2fbf b935 dcbe
000003b0: 3294 03bf 5219 9fbe b786 03bf e8d3 e5be
000003c0: df44 1bbf da53 efbe 7e23 03bf c18a eabe
000003d0: b479 06bf 092a e0be 2f95 05bf 121b 6bbe
000003e0: e8f4 1cbf cd0e 87be 9a5f 37bf ca7e ffbe
000003f0: a69b 06bf 8cc9 d4be 1d93 34bf eba8 04bf

fc2.weight f4 [128, 256]
0.07241554 -0.15206017 0.043529734 0.0037739917 -0.17736852 -0.14364533 -0.17815681 -0.04690874
-0.2752656 0.008166914 -0.10956974 -0.09129689 -0.09190543 0.038551692 -0.0040639616 -0.11698873
0.17883599 0.22724745 0.047466546 0.08305899 0.022028254 0.009544296 -0.022659995 -0.24279195
-0.15887275 -0.041195728 0.08139649 -0.10440096 -0.33397222 -0.13353314 -0.08290866 0.0068067377
-0.2653519 0.005964846 0.07928599 -0.04343875 -0.0341069 0.13657679 0.04611991 0.10269004
-0.07760802 -0.23776653 -0.20855814 -0.23396967 -0.066980354 -0.016137654 -0.06792211 -0.1070044
-0.19063124 -0.24230035 -0.07873953 0.026535666 -0.09599657 0.012131888 -0.034261186 -0.12712052
0.05912906 -0.2643914 -0.05599622 -0.009814382 -0.07448322 -0.070074596 -0.037595842 -0.16654137
-0.07178415 -0.13353781 -0.31423816 0.15639344 0.2250653 0.020800812 -0.0087981345 -0.18231608
-0.0130467 0.08877512 -0.0038480512 -0.19366382 0.028278047 -0.1395397 -0.06369756 -0.017287685
-0.09448037 0.0132014435 -0.00016952984 0.07726487 -0.09152197 0.1312355 -0.20849584 0.03598024
-0.1227295 -0.27361077 0.13033526 0.026097083 0.14668012 -0.03986923 -0.024664083 0.020389227
-0.22499153 0.02437697 0.022516226 0.08836486 -0.15928264 -0.15156457 0.031436965 -0.062820956
-0.009650507 0.0032012153 -0.13031788 -0.01815387 0.0982342 0.04955353 0.0021384982 -0.15862954
-0.008878807 -0.023998963 -0.039774407 -0.08985317 0.017534444 -0.16692492 0.034702186 0.035373356
0.01600732 -0.0062926426 -0.016522398 0.022384781 -0.03963052 -0.12423574 -0.09927115 -0.034409467
-0.053514432 0.15829217 -0.18936661 -0.11078695 0.051000465 0.046715125 -0.060323652 -0.047052532
-0.099797636 -0.07822813 -0.15784736 -0.09772137 0.10876731 0.050908044 -0.09230733 -0.08702235
0.019865923 0.1586339 -0.066353925 -0.12945914 0.04396442 -0.15204872 -0.001064658 -0.07636549
0.07851057 0.16915746 -0.09032268 -0.10518528 -0.07965695 -0.080818266 -0.15247816 0.10691472
0.05712489 0.0856576 0.011150684 -0.029630052 -0.07266654 -0.052475106 -0.27010843 0.08213403
0.14603242 -0.14494742 -0.110388905 0.08485297 -0.11100526 0.035864405 -0.165516 0.12530406
0.04050728 -0.167874 -0.03756144 0.02809912 -0.11001634 -0.025606869 -0.09151709 0.038903996
0.0040306016 -0.19302705 -0.0932973 0.03380234 -0.26275697 -0.1548927 0.050382365 0.18591002
0.013441087 -0.08826364 -0.08329339 -0.0104953395 -0.20238487 -0.028196132 -0.032918744 0.04369201
-0.078502074 0.029068826 -0.045672614 -0.09611603 0.112567164 0.10844592 -0.14394438 0.10287082
0.03692375 -0.1812818 -0.2182316 0.016991258 -0.20628461 0.032466598 -0.10676205 0.057240944
-0.12768996 -0.004982808 0.046855193 -0.10505371 -0.04577396 -0.06878945 0.07223798 -0.10557564
0.053676132 -0.022698939 -0.030535681 0.12123805 -0.06277719 0.021436924 0.24247824 0.030822176
-0.051767733 0.044489924 0.049658637 -0.10174795 -0.04240776 -0.11503248 -0.08884242 0.0852234
-0.143897 0.17141578 -0.09224645 0.091095716 0.031511836 -0.14223331 -0.1142038 -0.101010926
-0.19763523 0.014869146 -0.03126243 0.011432611 0.02844734 -0.120634 -0.42937648 -0.22132048
00000000: 994e 943d a9b5 1bbe 3c4c 323d 1355 773b
00000010: 18a0 35be c317 13be bd6e 36be 6123 40bd
00000020: 9def 8cbe 85ce 053c 1a66 e0bd ddf9 babd
00000030: ea38 bcbd 61e8 1d3d fb2a 85bb ca97 efbd
00000040: c820 373e 8eb3 683e 486c 423d d51a aa3d
00000050: 9974 b43c ae5f 1c3c 74a1 b9bc 749e 78be
00000060: 8aaf 22be dabc 28bd 34b3 a63d 2cd0 d5bd
00000070: 68fe aabe e9bc 08be 04cc a9bd 0e0b df3b
00000080: 34dc 87be c174 c33b b160 a23d d5ec 31bd
00000090: adb3 0bbd c9da 0b3e 3be8 3c3d 284f d23d
000000a0: f4f0 9ebd 1279 73be 4490 55be bf95 6fbe
000000b0: ff2c 89bd 1d33 84bc bf1a 8bbd 1f25 dbbd
000000c0: d634 43be 951d 78be 3142 a1bd 5361 d93c
000000d0: da99 c4bd d4c4 463c 7555 0cbd e22b 02be
000000e0: 5031 723d 4f5e 87be 4b5c 65bd 80cc 20bc
000000f0: a98a 98bd 4583 8fbd 19fe 19bd d289 2abe
00000100: 9203 93bd 23be 08be d3e3 a0be 9a25 203e
00000110: 8577 663e 7766 aa3c 0d26 10bc 11b1 3abe
00000120: d3c1 55bc bbcf b53d 962f 7cbb cf4f 46be
00000130: 5da7 e73c 7fe3 0ebe de73 82bd e79e 8dbc
00000140: ed7e c1bd de4a 583c d2c3 31b9 0b3d 9e3d
00000150: df6f bbbd 9962 063e ef7f 55be 0460 133d
00000160: 9b59 fbbd b616 8cbe 9b76 053e 8dc9 d53c
00000170: 5033 163e eb4d 23bd 550c cabc 4f07 a73c
00000180: 2e64 66be 36b2 c73c f373 b83c a3f8 b43d
00000190: fd1a 23be be33 1bbe 0cc4 003d 46a8 80bd
000001a0: 291d 1ebc 7bcb 513b 0d72 05be 6db7 94bc
000001b0: 032f c93d a4f8 4a3d 0c26 0c3b c86f 22be
000001c0: 6a78 11bc 7999 c4bc 7dea 22bd f004 b8bd
000001d0: 65a4 8f3c 5eee 2abe e123 0e3d a7e3 103d
000001e0: c821 833c 8332 cebb fb59 87bc 4a60 b73c
000001f0: 9d53 22bd 4f6f febd ac4e cbbd f1f0 0cbd
00000200: f331 5bbd 5817 223e 52e9 41be 45e4 e2bd
00000210: dde5 503d 5c58 3f3d ef15 77bd 28ba 40bd
00000220: b462 ccbd 1236 a0bd bda2 21be 2422 c8bd
00000230: 65c1 de3d f484 503d a00b bdbd c638 b2bd
00000240: dcbd a23c ed70 223e 91e4 87bd f090 04be
00000250: 0914 343d a9b2 1bbe ff8b 8bba 8365 9cbd
00000260: 26ca a03d 9d37 2d3e 19fb b8bd 616b d7bd
00000270: 2f23 a3bd 0c84 a5bd 3c23 1cbe 1bf6 da3d
00000280: cafb 693d 406d af3d 5cb1 363c b9ba f2bc
00000290: 32d2 94bd 23f0 56bd a74b 8abe e335 a83d
000002a0: 8689 153e 196d 14be 9413 e2bd 65c7 ad3d
000002b0: ba56 e3bd 8ee6 123d 077d 29be b54f 003e
000002c0: f6ea 253d 29e7 2bbe 06da 19bd 2030 e63c
000002d0: 3f50 e1bd 7fc5 d1bc 506d bbbd cc59 1f3d
000002e0: 2313 843b e2a8 45be a812 bfbd 5374 0a3d
000002f0: 1588 86be 319c 1ebe bd5d 4e3d 325f 3e3e
00000300: 0138 5c3c 91c3 b4bd ba95 aabd a5f4 2bbc
00000310: fb3d 4fbe 93fb e6bc ced5 06bd 65f6 323d
00000320: b2c5 a0bd bf21 ee3c 3513 3bbd 7bd8 c4bd
00000330: 9d89 e63d e518 de3d 2866 13be f0ad d23d
00000340: 5c3d 173d f0a1 39be 1b78 5fbe 4031 8b3c
00000350: 463c 53be b2fb 043d 10a6 dabd 7b75 6a3d
00000360: 28c1 02be d346 a3bb 3beb 3f3d 6626 d7bd
00000370: 7a7d 3bbd 7ce1 8cbd 82f1 933d 0b38 d8bd
00000380: 81db 5b3d 20f3 b9bc f725 fabc a84b f83d
00000390: 5491 80bd 7d9c af3c 374c 783e ca7e fc3c
000003a0: 670a 54bd 113b 363d db66 4b3d 3b61 d0bd
000003b0: c2b3 2dbd 2696 ebbd 04f3 b5bd 9b89 ae3d
000003c0: bc59 13be 9e87 2f3e b5eb bcbd 6490 ba3d
000003d0: 8e12 013d 9ca5 11be afe3 e9bd d1de cebd
000003e0: e460 4abe b89d 733c 090d 00bd d94f 3b3c
000003f0: 650a e93c f50e f7bd 3cd7 dbbe d6a1 62be

fc2.bias f4 [128]
-0.1227855 -0.06506568 0.08049268 -0.12145888 -0.01642028 -0.09516581 0.021814767 -0.033738628
-0.06941266 -0.03876725 0.010190334 -0.052143026 -0.013924595 -0.1543572 0.008627626 -0.0016091347
-0.048420284 0.014676753 -0.07481512 -0.04837666 0.03168418 -0.0036192045 0.012968273 -0.011357788
0.017376892 0.048516937 -0.020361366 0.057808455 -0.044275466 0.05354856 -0.07984071 -0.028312271
-0.00938323 0.08989579 -0.05262819 0.08240157 0.12833494 -0.089540206 -0.055320594 0.050382376
-0.034191392 -0.008716926 0.03323288 -0.17749213 -0.06477984 -0.06578939 0.063418575 -0.029419005
0.03384895 -0.13734354 -0.025418753 0.0180323 -0.094879545 -0.07800476 -0.059598003 0.04875609
-0.046211682 0.06401029 -0.006104376 -0.02670578 0.024258483 -0.042839758 -0.0067924294 -0.09449086
0.01205928 -0.01700214 0.038767952 -0.13893676 -0.027517667 -0.011631328 0.110326 -0.07765278
0.03395962 -0.034118235 -0.09029667 0.050329 -0.03950136 0.07960561 -0.11126921 -0.024788026
-0.060201358 -0.01660421 0.004822069 -0.07782761 -0.031026296 -0.027428918 0.02911288 -0.029010758
-0.07983502 0.08175104 0.015235516 0.019857677 0.031953566 -0.07857993 -0.0149002 0.043696854
-0.060602136 0.07647429 -0.08858706 0.008938968 -0.084598325 0.123546936 0.11729529 -0.046522755
0.04430969 0.028467532 -0.038812954 -0.12275694 -0.01377059 -0.0466235 -0.038149312 -0.1916982
0.024416924 -0.0556433 0.05918749 -0.077476956 0.059998415 -0.060556173 0.01904919 0.0692689
-0.11336038 0.00016038978 0.08313175 -0.035065673 0.10674782 0.11145104 -0.03966668 0.006832149
00000000: f776 fbbd 2841 85bd 59d9 a43d 6fbf f8bd
00000010: d383 86bc 4be6 c2bd e2b4 b23c 8431 0abd
00000020: 3a28 8ebd 68ca 1ebd 5cf5 263c ed93 55bd
00000030: fc23 64bc d00f 1ebe e35a 0d3c 9ae9 d2ba
00000040: 5954 46bd c476 703c ab38 99bd 9b26 46bd
00000050: 45c7 013d 2d30 6dbb e178 543c 0416 3abc
00000060: fc59 8e3c b2b9 463d e1cc a6bc 8fc8 6c3d
00000070: 315a 35bd bc55 5b3d 8783 a3bd 23ef e7bc
00000080: 1ebc 19bc 491b b83d a890 57bd 28c2 a83d
00000090: 3c6a 033e db60 b7bd d997 62bd c05d 4e3d
000000a0: 460c 0cbd 70d1 0ebc 331f 083d 7fc0 35be
000000b0: 4bab 84bd 96bc 86bd 99e1 813d 2000 f1bc
000000c0: 32a5 0a3d c9a3 0cbe fd3a d0bc 79b8 933c
000000d0: 3550 c2bd f6c0 9fbd 091d 74bd 77b4 473d
000000e0: 7648 3dbd d417 833d 3807 c8bb 14c6 dabc
000000f0: bab9 c63c be78 2fbd 0793 debb 6d84 c1bd
00000100: 4994 453c 1248 8bbc 25cb 1e3d 7045 0ebe
00000110: bb6c e1bc 5391 3ebc 99f2 e13d 6c08 9fbd
00000120: 3e19 0b3d 90bf 0bbd 76ed b8bd c825 4e3d
00000130: 2ecc 21bd 4408 a33d 1de1 e3bd 4210 cbbc
00000140: b395 76bd 8d05 88bc 7202 9e3b 1564 9fbd
00000150: dc2a febc 9cb2 e0bc 227e ee3c f8a7 edbc
00000160: 8b80 a3bd 176d a73d 639e 793c 91ac a23c
00000170: bee1 023d 84ee a0bd f81f 74bc 79fb 323d
00000180: f239 78bd 8d9e 9c3d 226d b5bd c074 123c
00000190: e341 adbd 2d06 fd3d 8338 f03d a58e 3ebd
000001a0: 147e 353d be34 e93c 55fa 1ebd fe67 fbbd
000001b0: 0a9e 61bc 48f8 3ebd 7442 1cbd 884c 44be
000001c0: 0006 c83c 3bea 63bd 956e 723d 3dac 9ebd
000001d0: e6c0 753d c009 78bd 0c0d 9c3c dadc 8d3d
000001e0: 7d29 e8bd 4e2e 2839 fb40 aa3d 06a1 0fbd
000001f0: 9a9e da3d 7140 e43d 8779 22bd 38e0 df3b

fc3.weight f4 [64, 128]
0.078938045 -0.14563748 -0.13204207 -0.0047351886 -0.021579646 -0.0718096 -0.0830106 -0.03024476
-0.020743743 -0.1921161 0.07369166 0.09977124 0.036322135 0.09842509 0.022016693 0.029675528
0.1210442 -0.088986896 0.0050615496 -0.17095448 -0.06859384 -0.26814538 0.18800569 -0.21818258
0.06054556 0.06135538 0.06760373 -0.36319515 0.022788588 0.08195754 0.09619499 0.15982465
0.12869184 -0.3341256 -0.03712843 -0.114010476 0.06528663 0.066203184 -0.0583343 -0.12473515
-0.02383395 -0.009512418 0.27820718 -0.091788545 -0.15733784 0.104062155 -0.08626063 -0.07473504
-0.15571468 0.02324719 0.0014568566 0.15960445 0.014552767 -0.0029409523 0.10152571 0.012852638
0.05302954 -0.082379386 -0.17399228 -0.0155378105 -0.13165274 -0.1526806 0.111272894 0.041191448
0.08481876 0.06206977 -0.12219503 0.025406647 0.24144836 -0.03984174 0.041634608 0.17393897
0.07941106 0.06463792 -0.1854644 -0.20002563 -0.030118799 0.145557 -0.06952103 0.025617834
-0.3342116 0.014963534 0.013783878 -0.07389399 -0.13638256 -0.12192575 0.09575008 -0.039203435
0.080552034 -0.07165238 0.087355085 -0.13906792 0.10539578 -0.05461599 -0.073833436 -0.10025723
0.008680716 -0.061148793 0.09152702 0.0086891 0.04637673 -0.007043521 0.120518215 0.07603325
0.058882106 0.0014215498 0.006801474 0.066314384 -0.08654156 -0.0012796182 0.0030632003 -0.23672237
0.09586592 -0.17329353 -0.17281461 0.06944413 0.018161148 -0.05362285 0.15472537 -0.064343564
-0.077494696 0.01470425 0.15866068 0.029758029 -0.002945213 -0.11870722 -0.22479303 0.11992296
0.079405196 -0.29599944 -0.14736967 0.015522872 0.044733934 -0.07450271 -0.14096978 -0.06396756
0.03433682 -0.20024458 0.09482561 0.0120747425 0.08130673 0.042682406 -0.064422764 0.08884448
0.10340021 -0.017144265 0.025364686 -0.024204228 -0.24123952 -0.2075114 0.050619252 -0.13347225
0.15521088 0.15663932 -0.036727253 -0.20373778 -0.004257554 0.13336828 0.11290023 0.03574279
0.11317587 -0.064446 0.07082132 -0.031444054 0.0033899127 0.15158829 -0.049279857 -0.04331171
0.039652813 0.039440226 0.1326688 -0.09336281 0.075530075 0.024101257 -0.026990455 -0.03223812
-0.0472699 -0.16724554 -0.07020971 0.032944128 -0.030651659 -0.0039710966 0.03127327 -0.0073878076
0.073282234 -0.077238806 -0.18338951 0.030651627 -0.08663098 0.12834972 0.10763081 -0.041292626
-0.11290817 -0.07632835 -0.2212799 0.04646154 -0.25189564 -0.06665895 -0.1007474 0.23898973
0.16838685 0.13800985 -0.087483674 -0.08871687 9.066243e-05 0.07345096 0.060114328 0.04459008
-0.25139084 -0.03379 -0.047331043 -0.2154681 -0.05971703 -0.09304651 0.14417894 -0.009903868
0.1930489 -0.13320318 -0.21128058 -0.1797981 0.19387583 -0.09524372 -0.33254668 -0.10873313
0.021461466 0.027256751 0.07653713 -0.13224979 -0.041102264 -0.074292324 0.12708746 -0.07180309
0.077730924 0.026613403 0.14898404 0.20716482 -0.22663158 0.056401685 -0.0052820556 -0.20328291
0.04464926 -0.046184126 -0.15429875 -0.049656242 0.16700152 -0.022934122 0.08648331 -0.0373504
0.10076373 0.04617222 0.19235817 0.035071325 0.09465316 -0.087546006 -0.13412398 0.12632343
00000000: 45aa a13d fe21 15be 0936 07be a429 9bbb
00000010: ccc7 b0bc e910 93bd 7601 aabd dcc3 f7bc
00000020: c8ee a9bc 15ba 44be a7eb 963d dd54 cc3d
00000030: 85c6 143d 1893 c93d 5a5c b43c 181a f33c
00000040: 06e6 f73d c33e b6bd 5bdb a53b b10e 2fbe
00000050: ed7a 8cbd 5a4a 89be 9084 403e 416b 5fbe
00000060: 9ffe 773d c74f 7b3d d373 8a3d b7f4 b9be
00000070: 22af ba3c 5bd9 a73d e101 c53d 13a9 233e
00000080: cbc7 033e 8312 abbe fb13 18bd 537e e9bd
00000090: ffb4 853d 8995 873d f2ef 6ebd 2475 ffbd
000000a0: 6a3f c3bc f9d9 1bbc 2c71 8e3e a2fb bbbd
000000b0: 2c1d 21be 8a1e d53d 6aa9 b0bd af0e 99bd
000000c0: ab73 1fbe e470 be3c fff3 be3a 596f 233e
000000d0: bb6e 6e3c febc 40bb b6ec cf3d df93 523c
000000e0: 8135 593d 86b6 a8bd 082b 32be 4d92 7ebc
000000f0: facf 06be 4e58 1cbe 0be3 e33d 5db8 283d
00000100: 75b5 ad3d df3c 7e3d 6341 fabd 9a21 d03c
00000110: 3d3e 773e 1831 23bd 0d89 2a3d 0f1d 323e
00000120: 44a2 a23d e360 843d 61ea 3dbe 85d3 4cbe
00000130: b3bb f6bc e50c 153e 0b61 8ebd 7edc d13c
00000140: c81d abbe 9c29 753c c6d5 613c bb55 97bd
00000150: dfa7 0bbe 35b4 f9bd 9e18 c43d c893 20bd
00000160: 77f8 a43d 7cbe 92bd 39e7 b23d d267 0ebe
00000170: bed9 d73d 04b5 5fbd fc35 97bd aa53 cdbd
00000180: 9039 0e3c 2877 7abd 8572 bb3d ba5c 0e3c
00000190: 87f5 3d3d 56cd e6bb 41d2 f63d 52b7 9b3d
000001a0: 5d2e 713d 4c53 ba3a e6de de3b d6cf 873d
000001b0: b43c b1bd ddb8 a7ba f9bf 483b 5967 72be
000001c0: 5a55 c43d dc73 31be 50f6 30be b938 8e3d
000001d0: b0c6 943c a2a3 5bbd 5470 1e3e 8fc6 83bd
000001e0: 8ab5 9ebd 18ea 703c f277 223e 1cc7 f33c
000001f0: 7a04 41bb c51c f3bd 2530 66be 2b9a f53d
00000200: 319f a23d 3d8d 97be 13e8 16be a553 7e3c
00000210: ee3a 373d e094 98bd 625a 10be 6d01 83bd
00000220: c4a4 0c3d ea0c 4dbe ee33 c23d 24d5 453c
00000230: 2584 a63d bfd3 2e3d 15f0 83bd 18f4 b53d
00000240: 7dc3 d33d 2172 8cbc 9ac9 cf3c f247 c6bc
00000250: 7e07 77be de7d 54be 2256 4f3d f3ac 08be
00000260: 9aef 1e3e 0f66 203e 516f 16bd a3a0 50be
00000270: f482 8bbb b291 083e 3c38 e73d 0867 123d
00000280: c0c8 e73d 44fc 83bd c50a 913d 7bcb 00bd
00000290: 4c29 5e3b f639 1b3e add9 49bd 9f67 31bd
000002a0: fd6a 223d 138c 213d 54da 073e 0035 bfbd
000002b0: 83af 9a3d 0070 c53c 161b ddbc 1e0c 04bd
000002c0: 159e 41bd 6a42 2bbe 1cca 8fbd 6cf0 063d
000002d0: 3019 fbbc f91f 82bb 6618 003d 6c15 f2bb
000002e0: ff14 963d 612f 9ebd 76ca 3bbe 1f19 fb3c
000002f0: 956b b1bd 1c6e 033e 8b6d dc3d 7522 29bd
00000300: 663c e7bd 0a52 9cbd 3397 62be 754e 3e3d
00000310: 77f8 80be 7d84 88bd a754 cebd b9b9 743e
00000320: 9a6d 2c3e 7452 0d3e a42a b3bd 31b1 b5bd
00000330: 0522 be38 756d 963d 713a 763d 16a4 363d
00000340: 4db6 80be 6267 0abd 32de 41bd aba3 5cbe
00000350: d899 74bd 2b8f bebd a5a3 133e d543 22bc
00000360: 9cae 453e 6a66 08be f059 58be fe1c 38be
00000370: 6387 463e 240f c3bd 8f43 aabe 7aaf debd
00000380: f5cf af3c 8d49 df3c 80bf 9c3d 7d6c 07be
00000390: d95a 28bd 9326 98bd 3723 023e 800d 93bd
000003a0: 6431 9f3d 5a04 da3c 468f 183e 0423 543e
000003b0: 1c12 68be 7405 673d 1815 adbb 6529 50be
000003c0: 24e2 363d 912b 3dbd 7e00 1ebe 5864 4bbd
000003d0: 7202 2b3e 57e0 bbbc 291e b13d bcfc 18bd
000003e0: 375d ce3d 151f 3d3d 8af9 443e f3a6 0f3d
000003f0: 84d9 c13d 524b b3bd cc57 09be ee5a 013e

fc3.bias f4 [64]
0.11074598 0.23896939 -0.11110752 0.17992647 0.16966419 0.023103535 -0.19569273 -0.18877207
-0.04005445 0.07627068 0.073476724 0.26203033 -0.031652723 0.32544023 0.109391905 0.021013854
-0.19933589 0.1468139 0.00366224 -0.05906709 -0.13265406 -0.1355342 0.018099 0.07269699
0.049771827 0.027048279 0.0687271 -0.0529384 0.19212759 -0.041176762 0.19910696 -0.07273766
-0.021040203 0.09514019 0.1431221 -0.18232873 0.22614212 0.02123359 0.04931985 -0.2716838
-0.05352975 0.05734958 -0.14983107 0.05715111 0.056434758 -0.23245011 -0.05644401 -0.028361706
0.00029233863 -0.24318472 -0.19342239 0.023758534 0.033526547 0.13654853 -0.10040564 -0.031749487
0.18790741 -0.10100643 -0.12258915 -0.14687173 -0.26141292 -0.022905624 0.13181736 0.05162324
00000000: cace e23d 64b4 743e 578c e3bd a53e 383e
00000010: 73bc 2d3e a043 bd3c ad63 48be 774d 41be
00000020: 2310 24bd cd33 9c3d f77a 963d d728 863e
00000030: 49a6 01bd 1aa0 a63e dd08 e03d 3f25 ac3c
00000040: b51e 4cbe 6256 163e 3102 703b 55f0 71bd
00000050: 77d6 07be 7ac9 0abe 5b44 943c 29e2 943d
00000060: 8bdd 4b3d 5a94 dd3c cbc0 8c3d f0d5 58bd
00000070: 18bd 443e f7a8 28bd b2e2 4b3e 7bf7 94bd
00000080: 815c acbc dcd8 c23d 9a8e 123e 62b4 3abe
00000090: cd91 673e 11f2 ad3c 9c03 4a3d 241a 8bbe
000000a0: 0342 5bbd 65e7 6a3d 516d 19be 4817 6a3d
000000b0: 2228 673d 6707 6ebe d631 67bd cf56 e8bc
000000c0: 0745 9939 6a05 79be 8510 46be 42a1 c23c
000000d0: 2253 093d 61d3 0b3e 79a1 cdbd c00b 02bd
000000e0: cd6a 403e 76dc cebd 0510 fbbd 8b65 16be
000000f0: ead7 85be 93a4 bbbc 21fb 063e e472 533d

fc4.weight f4 [32, 64]
-0.068439335 -0.071106024 -0.07472046 -0.1044738 -0.09398976 0.012305959 -0.019172883 -0.066237114
0.14420497 -0.12509622 0.28107876 -0.2653784 0.14141731 -0.15318994 -0.03580195 -0.092266366
0.067995474 0.17901751 -0.20263048 0.10874662 -0.06182567 0.12913176 0.08221369 -0.010736249
-0.20404568 0.1855766 0.12011798 0.17047532 -0.05575206 0.14223894 0.011190195 0.009129482
0.1435215 0.11464337 -0.084900156 -0.08426946 -0.15197073 0.18198755 0.018195145 0.0867878
-0.19841777 -0.13324523 0.10819768 -0.13159016 -0.19106814 0.15522577 0.066016875 -0.01585611
-0.02379844 0.08763744 0.12756628 -0.02936617 0.14297564 -0.12820888 0.027100487 -0.3022213
0.046908792 -0.035349723 0.18629721 0.024160143 -0.059684917 0.16353068 -0.25554264 -0.09352895
-0.04622028 -0.021969322 0.096241124 -0.040023826 -0.13038933 0.22288667 0.16072083 0.1848736
0.027889078 -0.17301399 0.07324771 -0.011980365 0.016926087 -0.089630395 0.0004539191 -0.08918623
0.05493706 0.0996401 -0.15270308 0.15113948 0.07160531 0.18858786 0.118309535 0.037959453
-0.13258329 0.07870476 0.22268799 0.019857707 0.04355668 0.05473612 0.15708539 0.2083373
0.12851411 0.025236899 0.01743108 0.0459815 -0.035499536 0.084675245 0.19633754 0.0857132
-0.059501335 -0.094125226 0.22947834 -0.23491056 0.08946464 0.08832776 0.015108932 0.15769027
0.0018838232 0.15215927 0.07867184 0.16158864 0.039007463 -0.0048538055 0.19386016 -0.08786967
0.17908862 0.034574106 0.0638432 0.23896231 0.08034752 0.06974085 -0.16705547 0.19420366
0.17182645 0.1304581 -0.19506176 0.07173126 0.124258146 -0.024513356 0.005537532 0.042008303
-0.04081487 0.062586136 -0.20009227 0.14090003 -0.091401726 0.16477326 -0.18106072 0.13516755
-0.02534491 -0.10590162 0.20620684 -0.10812321 -0.13919334 -0.12154589 -0.1380584 -0.069477364
0.13637348 -0.24379635 -0.006737046 0.06509109 0.084749155 0.008153176 -0.051411565 -0.105477
-0.015992263 -0.12591937 0.20174879 0.10593792 0.09117233 -0.11151879 0.021913735 -0.1387063
0.018592257 0.11251992 -0.11971875 -0.0042064292 0.07890514 -0.046453524 -0.10662829 -0.19005935
0.14101616 -0.09698792 0.020936726 -0.029825708 -0.055353906 0.14829794 -0.12949614 0.12920348
-0.040822066 0.17795248 -0.0007682066 -0.023612378 -0.111045174 0.027422009 0.093040034 0.04329678
0.11060207 0.005955375 -0.07298194 0.09678592 0.0075321747 -0.008312038 -0.07938369 -0.061590776
-0.12712635 -0.010370802 -0.18337753 0.11217969 -0.28644684 0.07934568 -0.28359535 0.09152142
0.016684173 0.026664285 -0.01954095 0.14342238 0.15033545 -0.11821305 -0.32434458 0.05381206
0.02577893 -0.32862023 -0.13716273 -0.01506141 0.05016217 -0.18014233 -0.12806068 -0.23246695
-0.15811689 -0.17910668 0.0017190736 -0.18053302 0.10582147 -0.0102719935 -0.10319618 -0.15132594
0.07728952 0.08116031 0.02386985 0.15648657 -0.023975058 -0.0636627 -0.20307846 -0.16675438
0.24594969 -0.10793489 -0.07101653 0.20085901 -0.16043457 0.25309318 -0.09827465 0.15823351
-0.08864132 -0.04024738 -0.070506416 -0.06338077 0.05615431 -0.14735295 0.13441508 0.11839504
00000000: ec29 8cbd 09a0 91bd 0a07 99bd 5cf6 d5bd
00000010: b47d c0bd ef9e 493c 7310 9dbc 53a7 87bd
00000020: 78aa 133e 3919 00be 8ee9 8f3e addf 87be
00000030: b3cf 103e d3dd 1cbe 11a5 12bd 26f6 bcbd
00000040: 3641 8b3d 5e50 373e 5d7e 4fbe 8cb6 de3d
00000050: ea3c 7dbd 1e3b 043e a75f a83d 18e7 2fbc
00000060: 5af1 50be cb07 3e3e 6a00 f63d 1591 2e3e
00000070: 465c 64bd 16a7 113e 1457 373c d393 153c
00000080: 4df7 123e 25ca ea3d 22e0 adbd 7795 acbd
00000090: 379e 1bbe f25a 3a3e fc0d 953c cdbd b13d
000000a0: 072e 4bbe 7071 08be bf96 dd3d 92bf 06be
000000b0: 5ea7 43be 81f3 1e3e db33 873d ace4 81bc
000000c0: f2f4 c2bc 427b b33d bca0 023e 5291 f0bc
000000d0: 3568 123e 3049 03be d701 de3c c0bc 9abe
000000e0: 6f23 403d dfca 10bd b2c4 3e3e 7eeb c53c
000000f0: 2c78 74bd 9674 273e 7cd6 82be 1b8c bfbd
00000100: 7a51 3dbd 02f9 b3bc 111a c53d 06f0 23bd
00000110: c884 05be 673c 643e 0094 243e 814f 3d3e
00000120: a377 e43c 942a 31be e502 963d 4b49 44bc
00000130: 94a8 8a3c 2490 b7bd fefb ed39 45a7 b6bd
00000140: af05 613d 1c10 cc3d 325e 1cbe 4fc4 1a3e
00000150: cea5 923d 2d1d 413e 454c f23d 5f7b 1b3d
00000160: eac3 07be f62f a13d 5208 643e a1ac a23c
00000170: 7d68 323d fb32 603d feda 203e 6056 553e
00000180: 3499 033e 9dbd ce3c a0cb 8e3c 1957 3c3d
00000190: f667 11bd 376a ad3d b50c 493e 678a af3d
000001a0: acb7 73bd bac4 c0bd 5ffc 6a3e 658c 70be
000001b0: 3d39 b73d 2fe5 b43d 748b 773c 8f79 213e
000001c0: 9eea f63a a4cf 1b3e b41e a13d 7e77 253e
000001d0: 4ac6 1f3d ac0c 9fbb 4783 463e 03f5 b3bd
000001e0: 0263 373e 949d 0d3d 39c0 823d 89b2 743e
000001f0: 3e8d a43d 4ad4 8e3d 9710 2bbe 53dd 463e
00000200: 46f3 2f3e cf96 053e 45be 47be d7e7 923d
00000210: 0e7b fe3d 3cd0 c8bc 2f74 b53b e610 2c3d
00000220: 7e2d 27bd 292d 803d fde4 4cbe 1948 103e
00000230: d430 bbbd 52ba 283e fb67 39be 5d69 0a3e
00000240: 21a0 cfbc f3e2 d8bd e327 533e b46f ddbd
00000250: b388 0ebe 0ded f8bd 2e5f 0dbe 264a 8ebd
00000260: 7da5 0b3e c0a5 79be 70c2 dcbb 7a4e 853d
00000270: f790 ad3d e694 053c ef94 52bd 5304 d8bd
00000280: 3502 83bc 02f1 00be 3c97 4e3e fbf5 d83d
00000290: 8fb8 ba3d f763 e4bd 6f84 b33c 0609 0ebe
000002a0: ca4e 983c d870 e63d 1b2f f5bd 16d6 89bb
000002b0: 0599 a13d 0d46 3ebd ef5f dabd eb9e 42be
000002c0: 8a66 103e 9aa1 c6bd 7f83 ab3c 0b55 f4bc
000002d0: c7ba 62bd 6adb 173e a39a 04be eb4d 043e
000002e0: 0a35 27bd 2d39 363e 7961 49ba bf6e c1bc
000002f0: a76b e3bd 1fa4 e03c c68b be3d f757 313d
00000300: 5783 e23d 4e25 c33b 8e77 95bd b237 c63d
00000310: 76d0 f63b 372f 08bc eb93 a2bd 9c46 7cbd
00000320: 692d 02be 4cea 29bc 52c7 3bbe 77be e53d
00000330: 29a9 92be fd7f a23d 6933 91be 956f bb3d
00000340: 3fad 883c 0f6f da3c 5814 a0bc 51dd 123e
00000350: 89f1 193e af19 f2bd 7e10 a6be 096a 5c3d
00000360: 562e d33c e940 a8be 6374 0cbe 22c4 76bc
00000370: d976 4d3d 3b77 38be 5722 03be d10b 6ebe
00000380: 65e9 21be be67 37be 8a52 e13a a6dd 38be
00000390: edb8 d83d dd4b 28bc 8558 d3bd 30f5 1abe
000003a0: f849 9e3d 6037 a63d b48a c33c 043e 203e
000003b0: 5767 c4bc 9761 82bd cdf3 4fbe a9c1 2abe
000003c0: 3cda 7b3e f80c ddbd 1d71 91bd fcad 4d3e
000003d0: f648 24be 6e95 813e 3844 c9bd f707 223e
000003e0: 9589 b5bd 70da 24bd ab65 90bd c7cd 81bd
000003f0: 1002 663d b1e3 16be 1ba4 093e 1979 f23d

fc4.bias f4 [32]
0.13000914 0.02482291 0.44179744 0.3454351 0.36999935 0.26019478 0.35918328 0.11686148
0.24873944 0.23688717 0.16848436 0.13242528 0.11964234 0.18724033 -0.16751152 0.16810805
0.12562844 0.25799346 0.357994 -0.18800691 -0.11185665 0.015280164 -0.17279775 0.1514194
0.3917279 0.31879672 0.23123483 0.1914125 0.28326014 0.09777408 0.08314383 -0.02050882
00000000: 1e21 053e 6a59 cb3c 4633 e23e dfdc b03e
00000010: 8e70 bd3e 4038 853e dfe6 b73e 1255 ef3d
00000020: 8db5 7e3e 8d92 723e 2a87 2c3e 7e9a 073e
00000030: 0b07 f53d eebb 3f3e 2488 2bbe 8424 2c3e
00000040: bea4 003e b817 843e fd4a b73e e284 40be
00000050: 1915 e5bd a759 7a3c e5f1 30be b00d 1b3e
00000060: 8f90 c83e 5339 a33e d3c8 6c3e a301 443e
00000070: 7907 913e c73d c83d 5047 aa3d 1d02 a8bc

fc5.weight f4 [1, 32]
0.117282525 0.055500682 -0.13234748 -0.17448647 -0.12891555 -0.1374685 -0.13131535 0.18680304
0.17069155 -0.11828722 0.09580687 -0.087924965 0.10780745 -0.1827964 -0.0022217797 0.11178661
0.14828685 -0.16882788 -0.15658581 0.04681245 0.014178255 0.11213423 0.0005145906 -0.13090916
-0.14785564 -0.111478284 0.106427655 0.17062084 -0.15518008 0.12998073 0.10130474 -0.045514364
00000000: d231 f03d af54 633d 1986 07be 95ac 32be
00000010: 7002 04be 8bc4 0cbe 8877 06be 4c49 3f3e
00000020: c4c9 2e3e 9240 f2bd 6436 c43d 0112 b4bd
00000030: 27ca dc3d fb2e 3bbe 479b 11bb 61f0 e43d
00000040: 82d8 173e 37e1 2cbe 0858 20be 69be 3f3d
00000050: e94b 683c a2a6 e53d 97e5 063a 0d0d 06be
00000060: 7867 17be ba4e e4bd bef6 d93d 3bb7 2e3e
00000070: 87e7 1ebe ab19 053e dc78 cf3d 456d 3abd
